rnn_trained_model.pth (torch, 69472 bytes, 14 tensors)

rnn.weight_ih_l0 f4 [64, 14]
00000000: 984f d640 e7e0 cfc0 6b0d bdbd c595 703e
00000010: e8c0 babc 1834 963d e02b abbb 1c18 2d3d
00000020: 6644 48bf 4e36 723c 597b 4ebd 83f4 083d
00000030: 3eae 7d3d bdec afbd aa2e 393f f22a a8c0
00000040: 1b96 ca3d 3be9 a0bf ab81 08bf 92cf 45c0
00000050: 521d 543f 8a57 17c0 bf14 7ec0 82b1 80bf
00000060: f888 a83f 68b6 d93d 58fe 2d3d 7882 0dbe
00000070: 985a 88c0 36b8 df40 6cea 69bf 8a07 673f
00000080: 6506 44c0 e3d4 dc3e 5820 8dbf 5564 c7bf
00000090: ddb1 0dc0 41a5 0d3f a0ec 573f 6c02 e73f
000000a0: 5175 11bd 0e35 473d 3467 90bf d074 ea40
000000b0: 3cc9 6fbf 229c 0340 b95e 58c0 1d83 da3e
000000c0: ea11 b6bf 010f 2840 4cc7 58bf a521 e23f
000000d0: f5cd 2abf 31ec 2f3e 8419 31be e1af 8abe
000000e0: 7a0d 0140 4c01 1b41 958f b73f 8fa5 79c0
000000f0: 5eac e6bf 3f78 1c40 5e66 0cbf 6a4e d9bf
00000100: 2804 203e cd8b 9abf c3ad e5bf 4a93 403f
00000110: 2083 933d f23c a8bd e62c a1bf 4783 4041
00000120: 0f54 a4be 75ef 7bbf 3cc4 70bf 6029 1cbf
00000130: 07cd 83bf 78ed b7bf ac6b 5c40 4d86 f2bf
00000140: 5963 a73f ccee b4bf d607 0e3e 75a8 0a3e
00000150: 047e bbc0 39c6 a940 36a7 56be f623 33be
00000160: 29d1 8b3d 92f6 c8bd 3314 2bbe 2d3f 7e3d
00000170: 8311 813f f019 73c0 259a 363f 25bc 52bd
00000180: ac75 2a3d c812 4e3d fe25 0ac0 eeda 0441
00000190: 2cd4 c1be fa18 3b3e 91be 0abf b945 0e3f
000001a0: 01ae 4ebe 7c1a 8bbf 11de 9d40 97bc 79bf
000001b0: a883 07bf 5b5e 7dbc d4df 2e3e 4ffc b2bb
000001c0: b9e6 7f40 d001 de41 0d41 373d ee2f 91bf
000001d0: 84ce bb3d cf08 f6be 8edd 273e 4b5d 4b3f
000001e0: e159 9740 6a2f db3f b2b4 24be 2d8e 1abf
000001f0: f7b2 793e 48cb 093e 2395 3f40 806f 44c1
00000200: f897 913e 00c4 a03e 4d73 c33d f443 153d
00000210: fe93 893f bbd5 f8bc fd90 5e3e ca82 b8c0
00000220: 5fd7 a13f f91b ed3f 7253 823d 8d0d 623e
00000230: 2b40 8140 ff5b 4941 5283 013c 7782 70bf
00000240: 0bdd 7dbf 88df afbc 073e 893f d457 4b3f
00000250: 19f5 65be be01 44c0 3be7 1abe 3a10 06bf
00000260: 6a8e 183e 5efe 0ebd 3d4a 0241 d8e6 0f3f
00000270: 313b 31bd 1ed9 1f3d 2dae 65bd b1c4 90bd
00000280: 519e 233e 436f 91bd ceff e93f a97f b0bd
00000290: 6a74 1bbe 1135 d93d c030 193d 1676 c83a
000002a0: 9338 88c0 33ff 0e42 cf41 0a3e b2ff 553e
000002b0: 0727 11bd 278a 3d3b a3e6 68bd acdb 58be
000002c0: e0b6 3d3b 692b 973d f4f8 803c 89c7 8e3d
000002d0: ad59 4c3d 2e38 0cbd c4e8 5bbf 984e d240
000002e0: e39b a3be d189 583e c10f aabf e37b 8abe
000002f0: 9685 a9bf 627f d2be 5e7c e7c0 b621 a53f
00000300: bc60 a8bd fb2a aebf d0f7 74bd 8c64 883d
00000310: 5174 0241 14a3 1242 5f58 a53d 2a36 6ebc
00000320: b67b c03b 9c59 4cbd 48f0 3dbe 0610 41bb
00000330: 5d81 383f 10af ddbf ad1f 4c3d 433f 3fbe
00000340: e6cd a1bd ba12 0b3c edbc 8f3e b400 2cc1
00000350: 5a9f 25bf 095a f03f 90eb b9be f696 5abf
00000360: c5d0 ecbf 2573 103d 5188 8b3e a392 a040
00000370: 74c5 313f b406 25bf 4253 663e a74c 443e
00000380: d355 65c0 3d49 b6c1 083f 99bf c08e 78bf
00000390: 4988 d4bf cf8a 15c0 8a8d 31c0 a80f 00bf
000003a0: 30f3 9f3f cfe5 2bc0 3b64 e1bf a068 4d3f
000003b0: 7e3d 1b3d 3224 25be 17a1 8f40 c5a7 5a41
000003c0: f546 2cbf c90c 9cbf 1927 b43d 5c61 2dc0
000003d0: e2c1 70be 737d c8bf 9e85 92bf 2b8e e13f
000003e0: b2d0 2d3f 73b7 80be be76 d9bd 31da f23c
000003f0: 57f6 ba40 c194 ab40 221c 2cbe eafd d03e
6.697216 -6.496204 -0.09231075 0.23494633 -0.022797063 0.07334155 -0.005223736 0.04225932
-0.7822937 0.014783455 -0.050410602 0.03343631 0.06193375 -0.08590076 0.7233683 -5.2552423
0.098919116 -1.2571176 -0.5332286 -3.090794 0.8285724 -2.364718 -3.9700162 -1.0054171
1.31668 0.10630494 0.04247889 -0.13819301 -4.261059 6.9912367 -0.91373324 0.9024588
-3.0628903 0.4313117 -1.1025496 -1.5577494 -2.213981 0.5533028 0.84345436 1.8047614
-0.035512272 0.04863458 -1.1281495 7.3267593 -0.93666434 2.0564046 -3.3807814 0.42678156
-1.4224217 2.6259158 -0.846791 1.7666517 -0.66720515 0.17179944 -0.1729489 -0.2708731
2.0164475 9.687817 1.4340693 -3.90073 -1.8021352 2.4448392 -0.548437 -1.6977055
0.15626585 -1.2073914 -1.7943653 0.75224745 0.072027445 -0.082147494 -1.2591827 12.03205
-0.32095382 -0.9841226 -0.9404943 -0.61000633 -1.0296944 -1.4369345 3.4440718 -1.8947235
1.3077193 -1.4135375 0.13870177 0.13540824 -5.859133 5.305447 -0.20962223 -0.17494187
0.068270035 -0.098126546 -0.16706924 0.062071968 1.0083469 -3.798458 0.71328956 -0.05144896
0.041616127 0.05031088 -2.1585689 8.30345 -0.37857187 0.18271247 -0.5419703 0.5557514
-0.20183565 -1.0867457 4.9333577 -0.9755339 -0.52935266 -0.015464391 0.17077571 -0.0054622064
3.9984572 27.750885 0.04473977 -1.1342752 0.09170249 -0.48053595 0.1639311 0.7943923
4.7297215 1.7123845 -0.16084555 -0.60373193 0.24384676 0.13456452 2.9934776 -12.277222
0.28436255 0.31399536 0.09543476 0.03644176 1.0748289 -0.030375352 0.21734996 -5.7659655
1.2643851 1.8524162 0.06363572 0.22075482 4.039083 12.58496 0.007904844 -0.93949074
-0.9916541 -0.021468893 1.0722054 0.7943089 -0.22456779 -3.0626063 -0.1512727 -0.5236851
0.14898077 -0.034910552 8.143125 0.56211615 -0.04326934 0.03902542 -0.05607431 -0.07068766
0.15978362 -0.071012996 1.828119 -0.08618099 -0.15181127 0.10605825 0.037400007 0.0015293981
-4.256906 35.749218 0.13501666 0.20898321 -0.03543761 0.0028921457 -0.056860577 -0.21177548
0.0028948113 0.07381327 0.01574371 0.06971652 0.04989021 -0.034233265 -0.8590205 6.572094
-0.3195487 0.21146323 -1.3286058 -0.27047643 -1.3243892 -0.4111281 -7.2339315 1.2900913
-0.082215756 -1.3606867 -0.059806645 0.06659803 8.153398 36.659256 0.08073496 -0.014539281
0.0058741225 -0.049890146 -0.18548691 -0.0029459014 0.7207239 -1.731905 0.049834896 -0.18676476
-0.079006 0.0084883515 0.28073826 -10.750172 -0.64696276 1.8777477 -0.36312532 -0.853866
-1.8501211 0.03526606 0.2725244 5.0179 0.69441915 -0.64463353 0.22492698 0.19169866
-3.5833633 -22.78576 -1.1972361 -0.9709282 -1.6604091 -2.3365972 -2.7742639 -0.5002389
1.249609 -2.6859014 -1.7608713 0.8023777 0.03790044 -0.16127089 4.4884143 13.665959
-0.6729577 -1.2191402 0.0879652 -2.7090673 -0.2351146 -1.5663284 -1.1447027 1.7621511
0.6789657 -0.2513996 -0.106183514 0.029645057 5.842571 5.3619084 -0.16807607 0.4081872

rnn.weight_hh_l0 f4 [64, 64]
00000000: 00dc ac3c 4493 2cbd 327f d93d 483f e23d
00000010: 9496 003d e4a5 0ebd 743d 853d 0803 99bc
00000020: c43a efbd 002f 663c fc26 b5bd 308d 1bbd
00000030: c4b0 b3bd 3007 f33d 00c1 c8bc 4084 c33c
00000040: c084 d23d fe8d b7bd 96ee a63d e8f4 ccbd
00000050: a077 25bd 30f6 a0bc d034 d43c 5671 a0bd
00000060: c817 86bc 74af d7bd 2097 0f3d 2ea9 efbd
00000070: 4085 2e3d b2a7 d9bd 34c4 f23d b078 fb3d
00000080: a4cc f73d 0870 ca3c 7079 9a3c 8ecd ac3d
00000090: a8d0 a03c 20e6 6a3d b634 dcbd 1e80 f53d
000000a0: 6c12 01bd c02c 4bbb 5459 1f3d 96e3 de3d
000000b0: 84fc f4bd 54f4 a73d 18f6 bfbd 649d a1bd
000000c0: 5474 79bd 749a 203d d0e6 23bd 30a5 acbd
000000d0: 9eac ab3d 001d 68bd 6a52 813d 882c cfbd
000000e0: 6a3e f13d f4d8 4dbd 6887 debd 32dc f1bd
000000f0: f67a c8bd a809 a6bc d090 09bd 606a efbb
00000100: a6c3 903d 7071 7ebc d087 41bd 480e 7ebd
00000110: 2638 b23d e21f a6bd c874 6abd 74e0 8bbd
00000120: 5c0e 26bd 727e 913d 2cdd b2bd d0d7 313d
00000130: e079 ac3c 204a f5bc 7618 e63d f0a7 2c3d
00000140: f016 1b3d 9059 4ebd 9493 a6bd 8853 cabc
00000150: 4069 7abd c08c 50bd d033 0ebc 3a71 8bbd
00000160: 30bb 093d dc69 6f3d 08c1 76bd 00cc 20b9
00000170: 94a8 8d3d 26fd fd3d dc45 e43d 92ef 93bd
00000180: e624 a63d e0ed 35bd 2cbc 1a3d d0ae 07bd
00000190: c258 c83d 20db bdbb bca0 13bd b0bf 96bc
000001a0: 646a 0f3d 28ca ecbd 7ce8 513d 7427 92bd
000001b0: ce51 813d 3004 0f3d 0abf cebd e04d 1a3d
000001c0: 8eaa 8c3d 406b c2bd f454 6bbd 5a6c c8bd
000001d0: 0aa2 8abd fabd a6bd c06a 903c 3015 4cbd
000001e0: c881 313d cc71 de3d f430 6e3d 786b 543d
000001f0: 3a4b d23d 7c49 cbbd 5c8b bdbd c0eb 7ebb
00000200: b8d7 353d 006e 22ba b067 143c d4db b8bd
00000210: 4487 ea3d 4e1b af3d 4c63 883d 80ce cebc
00000220: c838 9b3d 70b1 273d 1019 113c 4c95 c6bd
00000230: 28a0 423d bc87 dfbd 62ee 9ebd 785c bb3d
00000240: 0464 9e3d 7439 92bd 9016 1bbc d40e 573d
00000250: e4fe 7dbd 084c cbbc 68ec 383d 906d 6fbd
00000260: 629e d53d b06d edbd fad5 acbd 0013 97bb
00000270: b840 8ebd e08e df3c 98b0 e6bc 5896 99bd
00000280: 9027 703c 6c10 9e3d e0d8 aa3d 4ca9 333d
00000290: 2cad 693d 74b0 78bd da6f c1bd 08ed e13d
000002a0: 9a6e ef3d 98db 3cbd 5c54 143d eaeb d6bd
000002b0: 045a 7e3d b8ee 523d 2434 943d a643 e13d
000002c0: 805f 1d3d 667d 99bd 705d 4bbd 3858 b63c
000002d0: 408d 283c 9eb6 9cbd d8b4 7abd 6047 df3d
000002e0: 502d 163c 4c96 263d f072 e5bd 4017 e93b
000002f0: e846 b33c 04dd 4dbd ba05 fa3d 58fa 013d
00000300: 3ea6 ebbd 6815 ac3c 3040 79bd 3c98 9abd
00000310: 2050 4abc ea80 ef3d 1e96 8e3d 8e84 d93d
00000320: b0ac 8ebd 3c7f 50bd c099 b9bc 8080 bebc
00000330: 2465 0e3d 60fd 1fbc 283a c53d ba7a acbd
00000340: 780f 873c 0a67 8abd 501f e93d c02f 5bbb
00000350: f8f5 bc3c b80d f1bc 00dd 063a 549c 5dbd
00000360: f856 ad3d 00da bc3a 2ad1 e0bd b404 223d
00000370: 9ca9 3fbd 428e f0bd 4018 01bc b03b 983c
00000380: 5a1e ed3d 30fe 483d 20d8 a1bb 82fb f5bd
00000390: 38af 2abd cca7 f7bd aa2a 9e3d f8ec c0bd
000003a0: f481 233d 6828 d5bc f0d8 e63d 7c70 573d
000003b0: 7843 173d 0e25 8bbd 40f3 eabc 2c0d b3bd
000003c0: ac0a fcbd b47f 5e3d 3474 59bd 98f1 693d
000003d0: e0c3 5cbc 0611 883d 9cc0 b43d d810 aa3c
000003e0: 7053 653d 4294 bbbd 3e19 b13d 8867 1b3d
000003f0: 103a 443d 2cba dd3d e220 c6bd 601b 18bd
0.021100998 -0.04213263 0.10619964 0.11047226 0.031393602 -0.034826174 0.06505862 -0.018678203
-0.116811305 0.014049292 -0.08845326 -0.037976444 -0.0877395 0.11866605 -0.024506092 0.023866773
0.10279226 -0.0896263 0.081509754 -0.1000765 -0.040397286 -0.019648641 0.02590409 -0.07834117
-0.016368762 -0.10531512 0.035056233 -0.1170219 0.042607546 -0.106276885 0.11853829 0.12278879
0.12099579 0.024711624 0.018856734 0.08437644 0.019630745 0.05734837 -0.10752241 0.11987327
-0.03151171 -0.0031002015 0.03890355 0.10883252 -0.11962226 0.08200899 -0.093731105 -0.07891348
-0.060901955 0.039209798 -0.04001504 -0.084299445 0.083825335 -0.05666828 0.06314547 -0.101159155
0.11779483 -0.05025573 -0.108656704 -0.11809577 -0.09789078 -0.020268276 -0.03358537 -0.007306382
0.07068567 -0.015529975 -0.04724866 -0.06202534 0.08702116 -0.0811155 -0.057240278 -0.068299204
-0.040541038 0.07104196 -0.087335914 0.043418705 0.021054208 -0.029942572 0.11235134 0.042152345
0.03786367 -0.050378382 -0.08133617 -0.024698034 -0.06113553 -0.05091548 -0.008679345 -0.06808706
0.03362578 0.058450565 -0.060242683 -0.00015334785 0.06916919 0.124018 0.11146137 -0.07223429
0.081125066 -0.04441631 0.03777711 -0.0331257 0.09782554 -0.005793944 -0.03604196 -0.01840195
0.03501357 -0.11561996 0.051247105 -0.07136431 0.06314431 0.034916103 -0.100950316 0.037671924
0.06868468 -0.094931126 -0.057454064 -0.097862914 -0.06769188 -0.08141704 0.017629027 -0.049824893
0.04333666 0.10861549 0.058152154 0.051860303 0.102682546 -0.099261254 -0.09255096 -0.0038897842
0.04439518 -0.0006196201 0.009057924 -0.09026304 0.11451581 0.0855013 0.066595644 -0.025244951
0.075791895 0.040940702 0.008856073 -0.09696445 0.04751602 -0.10914561 -0.07760312 0.091484964
0.0773392 -0.071398646 -0.009465829 0.052504376 -0.06201066 -0.024816528 0.04514733 -0.058454096
0.104306 -0.11593187 -0.0843925 -0.0046104193 -0.06945938 0.027289808 -0.028160378 -0.07499379
0.01465787 0.07717976 0.08342147 0.043862626 0.057049915 -0.060715154 -0.09445162 0.11031538
0.116910174 -0.04610786 0.036213264 -0.10494216 0.062097564 0.05149719 0.072365075 0.10999231
0.038421154 -0.07494621 -0.049649656 0.022258863 0.010287583 -0.07652019 -0.061207622 0.109022856
0.009166077 0.040670678 -0.11203563 0.0071133673 0.021884397 -0.050259605 0.122081235 0.031732887
-0.115063176 0.021006301 -0.06085223 -0.07548568 -0.012348205 0.1169451 0.06962226 0.10620986
-0.06966531 -0.05090259 -0.022656322 -0.023254633 0.034764424 -0.009764999 0.09630233 -0.08421846
0.016486868 -0.067579344 0.113829255 -0.003344521 0.023066506 -0.029425487 0.0005144626 -0.054104164
0.084638536 0.0014408231 -0.10977395 0.039555266 -0.04679261 -0.117458835 -0.007879317 0.018583149
0.11578055 0.049070537 -0.004939094 -0.12010862 -0.041671008 -0.120925516 0.07722981 -0.09420198
0.039918855 -0.026020244 0.11271846 0.052597508 0.036929578 -0.06794177 -0.028680444 -0.08742747
-0.12306723 0.054321006 -0.053089336 0.057115167 -0.013474435 0.06643872 0.088258 0.020759985
0.055987775 -0.09159137 0.08647393 0.037940532 0.047906935 0.10826525 -0.09674241 -0.03713548

rnn.bias_ih_l0 f4 [64]
00000000: cee8 4abf 58ac 33bd cada b2be 158c 80bf
00000010: 826f b3bf 73cc 28bf c9e8 26be def1 0d3f
00000020: 9732 19bd 5a02 35be 5f9b 9abd 7099 12bf
00000030: 0738 aabf 9b45 9fbe 2754 03bf 9507 86bf
00000040: 1aa0 13bf d94a 6abf 7996 9ebd 05df aabd
00000050: ab2b 313f ad50 8abd d208 9d3e c630 723e
00000060: 333a 98be da4a 333e 9890 babf 68fb ac3f
00000070: 901e c03f 9356 183f bab0 2ebf 24bb 52be
00000080: f237 173e f8e8 b2bd 75a2 c93d 2550 ca3e
00000090: 7d18 713f c159 123f d79d cd3d 86b2 17bf
000000a0: ea25 0d3e fbf1 6abf 8117 87bf 995d 5a3e
000000b0: 4873 33bf 5d9d 3fbc 12bd f73b 6358 b2bd
000000c0: b463 1b3f f215 743f 5bbf aebf 7f13 4a3c
000000d0: 7cc7 3e3d 92d2 86be 08de fb3e 6633 e1be
000000e0: 6df6 50bf 092d 63bf c69e 19bf c186 9bbe
000000f0: eddb b2bf 78e3 e03f 2a04 23be aca0 b83a
-0.7926148 -0.04386553 -0.34932548 -1.004275 -1.4018404 -0.65936965 -0.16299738 0.55447185
-0.03740176 -0.17676678 -0.07549166 -0.5726538 -1.3298348 -0.31107792 -0.5130028 -1.0471064
-0.5766617 -0.9152046 -0.07743544 -0.08343319 0.6920726 -0.06753669 0.30670792 0.23651418
-0.29731902 0.17509022 -1.4575377 1.3514223 1.5009327 0.595071 -0.68238413 -0.20579201
0.14767435 -0.087358415 0.09845439 0.3951427 0.9417799 0.57168204 0.10039871 -0.5925678
0.13783994 -0.9177548 -1.0554048 0.21324767 -0.7009778 -0.011695233 0.0075603807 -0.08708265
0.6069901 0.95345986 -1.3652147 0.01233375 0.046576962 -0.26332527 0.49192834 -0.43984526
-0.81626016 -0.88740593 -0.60007894 -0.30376247 -1.3973366 1.7569418 -0.15919557 0.001408597

rnn.bias_hh_l0 f4 [64]
00000000: 12ac 62bf 69c9 17be a63a acbe cf8e 90bf
00000010: b03d a8bf 6f27 50bf 8fb9 993d 4a92 0b3f
00000020: 1fba a0bd 210b 20bc 4bc6 f3bd 9a23 35bf
00000030: b3ce afbf 7be8 acbe 737a 06bf c014 7cbf
00000040: e67b 0cbf d592 55bf 8bb5 f3bd d7e7 913d
00000050: 0d92 573f c466 893d cc55 a83e 6d9f 843e
00000060: b38d cebe acdb 243e aa63 bdbf 3eea 9b3f
00000070: 147b ad3f 7fa1 113f 30c9 22bf ffa8 89be
00000080: 9bf3 b83e daa2 45be 8a60 ae3d af9f 833e
00000090: 064d 8a3f 072c 243f ccb1 883e 40af 00bf
000000a0: 287a 7c3e 444e 89bf 3832 79bf c5e4 4b3e
000000b0: 1c7b 35bf e1af 713c 2f72 92bd 2b02 1bbe
000000c0: 0505 0c3f ae7e 5c3f d1ed b9bf 4224 9b3b
000000d0: 3184 f13d 4839 a5be 88c4 0e3f c5fb c0be
000000e0: e740 24bf e72b 6dbf 8c12 13bf af47 d8be
000000f0: 8955 aebf f820 f53f fe54 88be 308d 64be
-0.8854381 -0.14822926 -0.33638495 -1.1293582 -1.3143826 -0.8131017 0.075060956 0.54520094
-0.07848 -0.009768278 -0.11903056 -0.7075745 -1.3734955 -0.3377112 -0.5253059 -0.9846916
-0.54876554 -0.8342717 -0.11899861 0.07124298 0.8420723 0.06709054 0.32877958 0.25902882
-0.40342483 0.16099423 -1.479604 1.218086 1.3553185 0.5688705 -0.6358824 -0.26886746
0.36123356 -0.19300404 0.08514507 0.25707766 1.0804756 0.6412968 0.26698148 -0.5026741
0.24655974 -1.072701 -0.9734225 0.19911487 -0.70890975 0.014751405 -0.07150685 -0.15137546
0.5469516 0.861308 -1.4525701 0.004734547 0.11792792 -0.32270265 0.5576863 -0.37692085
-0.64161533 -0.92645115 -0.57450175 -0.4224219 -1.3619853 1.9150686 -0.26627344 -0.22319484

rnn.weight_ih_l1 f4 [64, 64]
00000000: fa53 60bf 3f3c 3fbf 93ff af3e a464 6dbf
00000010: 6438 593f 616d 8a3f d263 4d3f 8743 e240
00000020: 948a a53f 22a1 3cbf 0178 75bd 49d6 b63d
00000030: 30c8 35be 2853 a4bf 514b 813e c0e3 a8be
00000040: 769e ed3e d894 59be 63a4 54bf d524 da3e
00000050: 0562 bcbf 9508 13bf 7f1b 2c3f e546 55be
00000060: 8824 04c0 5f9e e4bf fe76 05bd d9b1 6abe
00000070: e1dd fa3e fc9e cdbd 250f 2e3f 7d7c 5dbf
00000080: 31ad fd3d 353b 6f3f 615b 0740 5ad0 99be
00000090: 302b 9cbe da8e a7be 8e6c 4dbf 7034 833d
000000a0: fd5b 933d dbca 7ebf 3cb3 d7bf 489c a1be
000000b0: c4e8 2fbf afd2 09be e233 66be 971f 5840
000000c0: 18ba eebe 4090 d33e f190 913f 8597 cabe
000000d0: ebb3 4bbe aefc 993e b4e1 2ebe ded7 603f
000000e0: fde2 1a3e 34c3 a1bf 4673 6cbe 49e5 793d
000000f0: 6847 25bf 5e53 a73e 99e4 fbbf 375b fc3c
00000100: 5d49 45be 01b9 b3bf a73c 19c0 83fa 33bf
00000110: 8ce4 fbbe 3eb4 00be 3818 75be b3da e83e
00000120: 16cc 963f e6ba 3bbf 7771 c5be 795d d13e
00000130: e7da be3e dc6d 0fbf 36e8 da3e 4e9d f83f
00000140: 3730 ebbe a316 803f b6ca d33f 8ccc e7bf
00000150: a132 ab3e 1976 643e ed23 e9bf 9d78 163e
00000160: 0769 163e 2332 05bf 4274 cf3e 8361 073f
00000170: 86d7 a03d 5723 d9be 09d1 333e dff7 b23f
00000180: 4642 f4bf 836c 06c0 50c8 533f ac3f c7bf
00000190: e2e6 c6be 1108 923f 5de8 e6bf 5245 0740
000001a0: 4fe3 20bf 1864 ab3d 6262 f9be 51f4 ccbf
000001b0: 3845 84bf 167c 153f 56ca acbe f399 da3e
000001c0: 1d1a 7b3f 08fa d03e 805a 35bf 8a2b 833f
000001d0: 5224 15bf 7ae7 4e40 ba22 18bf 0161 123f
000001e0: 995a d6bf 6b17 d1bf 6072 a13e ae84 0cbe
000001f0: 2b32 b83f 7a0c eb3e 5064 84be 8d73 9fc0
00000200: 008b 4fbf 2f83 58bf 9963 fb3f 0daf 61bf
00000210: 78ab dd3d 02c5 823f 03d6 223f 3b08 d2be
00000220: 820b cd3e 3a70 a4bf 1699 58c0 7afb 3ebf
00000230: 4919 0140 89ab a43f bc4f 97bf 755f 4f3e
00000240: c297 453e 19e9 7abc 8a9d 073f aba0 35c0
00000250: 1ffd e53e 7eab ac3e ba13 82bf 045a b83e
00000260: ddc2 4fbe 1320 593f 193e 5e3f 1a08 13c0
00000270: 5b7c 2d40 f9a8 893e a87e 8cbf c57b a33e
00000280: 1b58 963d 28a8 3bbf 79e8 b6be 678e dcbf
00000290: 787d 4abf e068 1cbf 2dbe 80bf 7fac 643e
000002a0: a5ae 923f 008d 57bf d2aa 473f ceba 8c3e
000002b0: 4901 85be 8915 eabe 279a fdc0 d748 163f
000002c0: 7cb1 1540 a27b 173f fa81 87be e9bb a73f
000002d0: 2d3a be3f 70eb 4d3d 079f e03e 466c 0ebf
000002e0: 51bd 4d3f a267 89be 75cc bcbe f4d6 56c0
000002f0: aa97 20bd d77e dc3e 29dc 1c3d 5a20 ccbe
00000300: c68d cfbe 6853 8dbf a3e2 d93e a31f 3fbe
00000310: ddb8 e53f 480e 6e3f c0e5 973f 2f62 18bf
00000320: c17b 753f c397 e63f 7f6d bd3b 2471 77be
00000330: 32c5 9e3f a5a6 99be 3a02 4dbe c745 63c0
00000340: 8668 16bf 5c21 11c0 09cb 27c0 1cb6 74be
00000350: 8f53 613c 38c3 823e 1534 e33f 3000 b53e
00000360: 7b6c 1b3f 3d4b 77bf e35b 6ec0 cfdb b4bf
00000370: 4351 08bf cf5c a4be e7fa a03f 8306 4ebf
00000380: 73cb 353f 8612 9e3f 67d4 e33c 7570 433f
00000390: 2e12 593c e310 f63e b14b 723f 21e7 e7bd
000003a0: 267d 523f bace 02bf caf5 5e3f 6fd4 1c40
000003b0: a419 68bf dded 6a3e 7f01 adbd d6c4 9bbf
000003c0: dc89 fb3e ff3e d03e 4758 92bc b239 f33b
000003d0: 40dd 633e 22b8 203f e099 2840 1848 9c3e
000003e0: 57f3 ad3d b127 873f 66be 25bf bca5 f6bd
000003f0: d48e 723e 5648 55bf d0cb c13e 359a 203f
-0.8762814 -0.74701303 0.34374675 -0.9273169 0.8485167 1.081463 0.8023044 7.070743
1.2932916 -0.7368337 -0.059928898 0.089275904 -0.17752147 -1.2837877 0.25252774 -0.3298626
0.4640996 -0.21248186 -0.83063334 0.42606226 -1.4717413 -0.5743497 0.67229456 -0.20827825
-2.0647297 -1.7860831 -0.032584183 -0.22919406 0.48997405 -0.100400895 0.6799186 -0.8651808
0.12386549 0.9344972 2.1149523 -0.30041772 -0.305017 -0.32726175 -0.80243766 0.06406486
0.0719528 -0.9952828 -1.6851573 -0.31564546 -0.6871455 -0.13459276 -0.22480729 3.376928
-0.46626353 0.41320992 1.1372358 -0.39568725 -0.19892852 0.30075592 -0.17078286 0.8782939
0.15125652 -1.2637696 -0.23090848 0.06100968 -0.6456208 0.32680792 -1.9679137 0.030805213
-0.19266267 -1.4040834 -2.394327 -0.70304126 -0.49197805 -0.12568757 -0.2393502 0.45479354
1.1781032 -0.7333206 -0.3856313 0.40891626 0.37276384 -0.5602701 0.42755288 1.9423006
-0.45935223 1.0006908 1.6546237 -1.8109298 0.33437064 0.22310676 -1.8214089 0.14694448
0.14688502 -0.5202963 0.40518385 0.52883166 0.07853608 -0.42409775 0.1756021 1.3981894
-1.9082725 -2.100373 0.8272753 -1.5566306 -0.38848025 1.1408712 -1.8039662 2.113606
-0.62846845 0.08368701 -0.48707873 -1.601206 -1.0333624 0.58392465 -0.3374812 0.4269558
0.9808672 0.4081576 -0.7084122 1.0247662 -0.58258545 3.2328782 -0.5942799 0.57179266
-1.6746398 -1.6335272 0.31532574 -0.13722488 1.439031 0.45907956 -0.25857782 -4.9828553
-0.8107147 -0.8457517 1.963977 -0.8815773 0.10823721 1.0216372 0.63607806 -0.41021904
0.40047842 -1.2846749 -3.3843436 -0.7460247 2.0171683 1.2864848 -1.1821208 0.20251258
0.19296172 -0.015314364 0.5297476 -2.8379314 0.4491968 0.33724588 -1.016227 0.36006176
-0.20289178 0.84814566 0.86813504 -2.2973695 2.710715 0.26886728 -1.0976152 0.31930366
0.073410235 -0.7330346 -0.35724238 -1.7230958 -0.790977 -0.61097527 -1.0058037 0.22331427
1.1459547 -0.84199524 0.77995026 0.2748627 -0.25977543 -0.45719555 -7.9250674 0.58704895
2.3389578 0.59173024 -0.26466352 1.3104221 1.4861504 0.05027336 0.43871328 -0.5563396
0.80367 -0.26836878 -0.36874738 -3.3568697 -0.039207138 0.4306552 0.0382959 -0.39868432
-0.40537852 -1.1041079 0.42555723 -0.18664412 1.7947041 0.9299054 1.1866989 -0.59524816
0.9589196 1.8015064 0.005780875 -0.24164253 1.2403929 -0.30009952 -0.2002038 -3.5511339
-0.5875324 -2.267661 -2.6217673 -0.23897594 0.013752832 0.25539565 1.7750269 0.35351706
0.60712403 -0.9659918 -3.7243583 -1.412958 -0.53248996 -0.32102057 1.2576569 -0.80478686
0.71013564 1.2349403 0.027811242 0.7634347 0.013248963 0.4805976 0.94646746 -0.11323381
0.8222221 -0.5109669 0.87093794 2.450466 -0.90664124 0.229423 -0.08447551 -1.2169445
0.49128616 0.40673062 -0.01786436 0.0074226493 0.22252369 0.62780964 2.6343918 0.30523753
0.08493679 1.0558988 -0.6474365 -0.1204333 0.23687297 -0.833135 0.3785081 0.627353

rnn.weight_hh_l1 f4 [64, 64]
00000000: b856 58bd 288e 47bd f055 f6bd 8006 003d
00000010: 244f c73d 4c5a 333d 8625 d03d dcd3 7dbd
00000020: 98cf 0abd 86c0 b63d e203 e83d 7cb8 9cbd
00000030: cc12 c8bd c67a 993d a61c f3bd 2256 c5bd
00000040: ac6a 45bd 5a6b cdbd 58f2 c5bc a47e 6d3d
00000050: 0082 353c e015 b63d c29e 94bd c009 133d
00000060: b057 093c cc12 dc3d a055 ac3d e4b2 723d
00000070: 3ea9 dfbd 905c 6c3c 745e 083d daef af3d
00000080: a80f 8b3c a857 4d3d 063c f3bd 588f ccbc
00000090: e45c 36bd 90cb be3c 78f3 b93d bce2 743d
000000a0: 2e8b babd 7cea 24bd bc3b 08bd 5cdd f73d
000000b0: ae06 efbd ceb7 883d 7235 bfbd 64d6 4cbd
000000c0: b4e9 093d 46d4 dd3d 98de cf3c 008a c9bc
000000d0: ae3a a83d 5c6c aabd 32c1 d23d ee6a 92bd
000000e0: 2019 bc3b 1402 94bd 8e99 e9bd bc7f d9bd
000000f0: 601b a7bd 3821 e5bc 1022 7c3d c885 ba3c
00000100: 9e62 c9bd c43a b93d 8cf2 cdbd 8c8a babd
00000110: 50c2 953c 3813 95bc 2ca8 aabd 9031 4ebd
00000120: 44d6 ab3d ca2a d23d b853 4bbd 5871 69bd
00000130: c492 393d 1806 4f3d 52e1 a53d bc0e 5abd
00000140: 9677 d93d 76f9 8d3d b0f1 e33c 980c 6b3d
00000150: 0415 2bbd 9834 2c3d 3e9f f83d bc89 3c3d
00000160: 28b6 a1bc 7e77 f7bd 084b b13c 288d 6d3d
00000170: ecec c4bd 7030 4f3d ba12 ea3d 16d4 babd
00000180: c053 09bc 348b 8c3d 2cd5 0fbd c0bb ebbd
00000190: 20ac 2dbc b094 6e3d 6035 a93d 1691 c43d
000001a0: 0060 1e39 a81f ed3d 7ed3 c63d 9c98 0cbd
000001b0: 90e9 513c ae11 debd 1400 613d 12e7 e6bd
000001c0: 18fa be3d 7cf8 cdbd f63e ff3d 7eb0 973d
000001d0: 20d9 30bc 06b1 ff3d 02e8 e23d 681f 9d3c
000001e0: 782f d4bc e0ed 913d 128d d7bd 883c c03d
000001f0: 0e4e bc3d 78aa 6f3d 86c9 ab3d 3045 c8bc
00000200: a646 cbbd e4d0 a8bd 667d cfbd 840d 7abd
00000210: d03b c43d 8a27 953d f0f4 46bd 60fd 693c
00000220: 8044 adba 8682 f1bd b8c2 9a3d d4df d0bd
00000230: 783e 1e3d 20a0 c43b c8b7 ef3d 80b1 e3bb
00000240: 6094 0c3d 5284 9bbd a892 9a3c 369d 96bd
00000250: 2011 e33b 481f ad3c 6602 b63d f0a0 12bd
00000260: a0f4 babd 4a2e a5bd 8e33 ce3d 7002 d4bc
00000270: 600c 6b3d fadd 853d 0ee9 f0bd e019 0d3c
00000280: 7841 a53c deae d8bd c0d6 f7bc 5887 40bd
00000290: cc96 dcbd 202d a4bc 849b 65bd 306a 61bc
000002a0: ac34 7bbd 6445 aa3d 2840 d33c 4416 13bd
000002b0: 1662 df3d 043f db3d 6846 e9bc f843 f7bd
000002c0: 50b3 503d 04cd 9a3d 86bf bdbd 50c4 dc3c
000002d0: c64a f3bd de3a c73d 4668 b23d 8c98 a6bd
000002e0: e0ed 4abc 0896 653d 6048 f1bc a406 40bd
000002f0: 50bc 6d3c a0c8 0ebc f63b c8bd e4e9 36bd
00000300: 987f d03c a028 cc3c 1ca3 713d 3e86 ca3d
00000310: 28ac f3bd c422 6a3d 3698 c63d 0094 febb
00000320: a8f1 1f3d f89e 30bd aa80 c83d c01e 443d
00000330: 26a8 b8bd 2a17 98bd a87d 02bd 4016 5dbc
00000340: 40e3 a13d dc59 99bd 580d 48bd d4c3 693d
00000350: d239 b43d 8a0c d5bd 6c39 603d a8f7 8f3d
00000360: 8010 8ebd ec71 cd3d 306f c8bc 0068 c73b
00000370: a4fd babd 3022 123d 90ec e9bd 20b3 4c3c
00000380: 4874 94bd 7aa7 a0bd 7c37 f5bd 622a a83d
00000390: a68f dbbd 688a eabd ee59 8ebd 8e33 9abd
000003a0: d48b e43d a40e 28bd 4841 17bd 3060 f0bc
000003b0: 004b ea3a f4c0 9cbd d631 9b3d cc4f f83d
000003c0: 9898 1a3d f8bc b43d c269 fa3d 4c0e d8bd
000003d0: e03c dd3d d801 583d 50ac 8abd 78af 6a3d
000003e0: b012 773c 146c 9ebd b0a2 813d 10a3 1cbc
000003f0: c46a cabd 567a c7bd 2e9a d8bd 70cb 73bc
-0.052817076 -0.048719555 -0.1202811 0.0312562 0.09731892 0.043787286 0.10163407 -0.061969623
-0.033889383 0.0892344 0.113288656 -0.07652375 -0.0976921 0.0749412 -0.11870699 -0.09635569
-0.048197433 -0.10030241 -0.02416341 0.057982102 0.011078358 0.08890891 -0.07256843 0.03589797
0.008382723 0.10745773 0.08414769 0.059252635 -0.10920952 0.0144263655 0.033293203 0.0859067
0.016975239 0.050132424 -0.11876683 -0.024970695 -0.04452218 0.023290426 0.09079641 0.059786543
-0.09108578 -0.040262684 -0.033260092 0.12102768 -0.11671196 0.06675683 -0.09336366 -0.050009146
0.033670142 0.108315036 0.025374696 -0.024601936 0.08214317 -0.08321449 0.10290755 -0.071493015
0.0057403 -0.07226959 -0.11406241 -0.106200665 -0.08159518 -0.027969941 0.061555922 0.02276887
-0.09833263 0.09044412 -0.10056028 -0.09108457 0.018281132 -0.01819764 -0.083328575 -0.050340235
0.08390477 0.102620676 -0.049640387 -0.05699286 0.045305982 0.05054292 0.08099617 -0.053236708
0.10618512 0.069323465 0.027825207 0.057385057 -0.04176809 0.042042345 0.12139748 0.04602979
-0.01974018 -0.12083338 0.021642223 0.057995945 -0.09615502 0.050583303 0.11429353 -0.091224834
-0.008381784 0.068624884 -0.035115406 -0.1151042 -0.01060012 0.05824727 0.082621336 0.095979854
0.00015103817 0.115783036 0.09708308 -0.034325227 0.012812033 -0.10843216 0.054931715 -0.11274542
0.09325045 -0.1005716 0.12463181 0.0740671 -0.010793954 0.124849364 0.11079408 0.019180015
-0.025901541 0.07125449 -0.10524954 0.093865454 0.09194575 0.05851218 0.08388047 -0.024447054
-0.099255845 -0.08242968 -0.1013134 -0.061048046 0.09581721 0.07282932 -0.048573434 0.014281601
-0.0013219267 -0.117924735 0.07556671 -0.10198942 0.038633794 0.0060005337 0.11704975 -0.00694865
0.03432119 -0.075935975 0.01886876 -0.07354204 0.0069295317 0.02113308 0.08887176 -0.035798013
-0.0912869 -0.080654696 0.10068427 -0.025880069 0.05738485 0.06536479 -0.11763202 0.008612126
0.02017282 -0.10580228 -0.030253768 -0.047004074 -0.1077095 -0.020041049 -0.056056514 -0.013758227
-0.06132953 0.083140165 0.025787428 -0.035909906 0.1090738 0.10705379 -0.028475955 -0.12073511
0.050952256 0.07558635 -0.09265046 0.026949078 -0.11879496 0.09728025 0.08711295 -0.08134565
-0.012385815 0.056051284 -0.029453456 -0.046881333 0.014510229 -0.008714825 -0.09777062 -0.04465665
0.025451466 0.024921715 0.058993444 0.09888886 -0.118980706 0.05716206 0.09697001 -0.007769108
0.03904882 -0.043120354 0.09790166 0.047880888 -0.09016447 -0.07426293 -0.031858116 -0.013494074
0.079046726 -0.074878424 -0.04884085 0.057071522 0.08800091 -0.10402782 0.05474226 0.070296586
-0.06936741 0.100314945 -0.02446708 0.006085396 -0.09130409 0.035677135 -0.11422074 0.012493879
-0.072487414 -0.078444436 -0.119734734 0.08211209 -0.10720758 -0.1145218 -0.069507465 -0.075293645
0.111594826 -0.041029587 -0.03692749 -0.02934274 0.0017875135 -0.076539904 0.07577865 0.12124595
0.03774318 0.088251054 0.12227203 -0.10549602 0.108026266 0.052736133 -0.06771147 0.057296246
0.015080139 -0.07735458 0.06329858 -0.0095603615 -0.09883645 -0.097401306 -0.105762824 -0.014880046

rnn.bias_ih_l1 f4 [64]
00000000: ff4a 1240 3298 41be b0b0 e73e 3993 9dbd
00000010: 8f74 ab3e 24dd 623f 1ca4 8dbf 3f76 d2bf
00000020: 0650 36bf faf0 2f40 651d 86c0 9000 a63f
00000030: 0d63 193f 9065 4c40 79c0 57bf 4756 653f
00000040: 4389 91be c688 32c0 56cb 1440 4ff3 8340
00000050: d719 32c0 d26e 86be 3452 90c0 6b0b abc0
00000060: e843 1340 2f2a af3f 704f 61bf b890 ec3e
00000070: adbe a63e dc14 38c0 0162 a23f 3360 81c0
00000080: 892c f7bf 34d2 9840 30dc a33e 18fc 6c3f
00000090: 5711 ee3f c7ab 49c0 8e48 b83e 63a0 12bf
000000a0: 128a 8740 a785 ebbf 3ea4 bc3f 3065 33c0
000000b0: e5f2 b43e eb9c eebe f92b 7c40 62e3 a0bf
000000c0: b6d8 c1bf e3c7 86bf a0f8 aa3f 1f08 fcbf
000000d0: c328 753f ccda 8b3e f859 48be 1c1e 563f
000000e0: 985b 9c40 0c74 03c0 bba1 c03d a0d7 1e40
000000f0: 5075 aebf 8375 1abf 5012 b4bf 83a5 02be
2.2858274 -0.18905714 0.4525199 -0.07694096 0.33487365 0.88618684 -1.1065707 -1.6442336
-0.71215856 2.749083 -4.191088 1.2968922 0.59916764 3.193699 -0.84278065 0.89584774
-0.28425035 -2.789598 2.3249106 4.1234508 -2.7828271 -0.26256424 -4.5100346 -5.345144
2.3010197 1.3684748 -0.88011837 0.46204162 0.3256735 -2.8762732 1.2686158 -4.042993
-1.9310466 4.7756596 0.32003927 0.92572165 1.8599042 -3.1511095 0.35992855 -0.5727598
4.2356043 -1.8400162 1.4737623 -2.803051 0.35341564 -0.46604094 3.9401839 -1.2569392
-1.514426 -1.052975 1.3357124 -1.9689978 0.9576532 0.27315366 -0.1956557 0.83639693
4.886181 -2.053958 0.09405848 2.4819107 -1.3629551 -0.6033556 -1.4068089 -0.1275845

rnn.bias_hh_l1 f4 [64]
00000000: afc9 0740 5230 9dbe ecda e53e 4a2c f2bd
00000010: 76c3 fa3e 52ef 553f 72d1 8abf e3dc d3bf
00000020: 9896 27bf 6cc1 3240 e8ec 85c0 92e5 a33f
00000030: 2ca9 f93e b27d 4b40 93ab 3dbf 6178 3d3f
00000040: 779c 82be 0cfc 2bc0 d402 1a40 c913 8440
00000050: edcc 33c0 8f6b 66be 4ce5 8fc0 c367 aac0
00000060: 467a 1540 e111 be3f 9888 66bf cac1 f23e
00000070: 68c5 553e e633 33c0 378b 9b3f 8c92 86c0
00000080: b0c1 ecbf dced 9540 964a 963e 6828 443f
00000090: 7015 f43f e128 4bc0 de20 d93e d3c0 32bf
000000a0: ac00 8b40 818e debf 92fe cf3f 1463 36c0
000000b0: 25d9 fc3e ed2e c2be 79a1 8340 fea7 9ebf
000000c0: 3cab c4bf 457d a3bf e80b a83f 5862 febf
000000d0: a092 803f 2243 8c3e b286 63be 40d6 703f
000000e0: ead7 9b40 e49a febf e59f f93d 3c78 1440
000000f0: 7efb b5bf ffaa 24bf 9a16 b1bf 9f4b 66be
2.1216848 -0.30700928 0.44893587 -0.11824854 0.4897725 0.835683 -1.0845168 -1.6551784
-0.6546416 2.7930555 -4.185169 1.2804434 0.4876188 3.1795468 -0.74089926 0.7401181
-0.25509998 -2.6872587 2.4064226 4.127415 -2.8093827 -0.22501968 -4.4967403 -5.325166
2.335588 1.4849206 -0.90052176 0.47413474 0.20876086 -2.8000426 1.215186 -4.205389
-1.8496609 4.6852856 0.2935378 0.76624155 1.9069042 -3.17437 0.42407888 -0.69825476
4.343832 -1.7387239 1.6249564 -2.8497972 0.49384418 -0.37926427 4.113461 -1.2395017
-1.5364757 -1.2772604 1.3128633 -1.9873762 1.0044746 0.27394968 -0.22219351 0.9407692
4.8701067 -1.9891019 0.121887006 2.3198385 -1.4217374 -0.6432342 -1.3835022 -0.22489785

fc.0.weight f4 [32, 64]
00000000: b8a7 9bbf 208e 0ebf 35e3 98be b190 03bf
00000010: e670 803e dcdf 1fbf 4e17 913e b3be 133e
00000020: 1d25 1f3f 1912 9dbf b8c4 5f3f 37c7 c7be
00000030: 4abd 76bc 120e fb3e af96 a63e 272c 20bd
00000040: 41f8 813c 3be3 b03d 15b6 9e3e d60c 1cbf
00000050: 6db4 193f 4d32 913e b53e dcbd 128e 82be
00000060: 92bf 40bf fdf1 1bbd 99dc d6be d9fa a03f
00000070: 8846 97bf 7c30 123f 5516 55bf 149a 913e
00000080: 633f 0f3f 9a31 04c0 1b73 a43d 2a2a 91be
00000090: f662 5b3d 4f63 c83f 10d3 e03e 2036 b0be
000000a0: d541 053e fef3 363f c5cf 6fbf 42cb 163f
000000b0: 8b77 ba3e fb88 103e 0db2 7dbc b5eb c3bd
000000c0: 4f71 d13f b686 fc3e dfef 36bf 9f04 f0bd
000000d0: 6f41 8bbe eb64 6b3e b307 ce3f 28f7 1dbf
000000e0: a2f0 23bf 6b92 2e3f f204 263f f17d 26bf
000000f0: 45e2 2e3e 6fa6 b63d 0383 9c3f 3bde 2dc0
00000100: 498c ab3f 6b19 acbf 269d 7bc0 2939 9cbf
00000110: 235b 0a40 139f 3a3f 9791 77bf 312a 6940
00000120: aeac 0940 31aa b83f 6961 943f 329b 9dc0
00000130: 82ad ee3f 2ced 1ac0 8713 073f f7b1 ed3d
00000140: f08b d33e 98c7 c2bf 315f c1bf a7f1 e53f
00000150: 2bf2 b73f ade0 2440 8294 8c3f b925 1940
00000160: fefc 4640 4343 9bc0 8ff4 d040 62a8 3fc0
00000170: a3d4 1140 df89 01bf 4858 5240 9b82 3340
00000180: cdee c13f bdd9 1ec0 dfd1 2b3f 5825 01bf
00000190: fee0 16c0 100b 39bf a623 16c0 af0b c93e
000001a0: bb8d 69c0 a0e6 b6be 4c69 83bf 2a35 773f
000001b0: 557a 9240 85bd 633d 7fb7 c1bf c49a 4540
000001c0: 40c0 7b3e 8438 4340 1278 42c0 e973 3b3e
000001d0: 1220 6bbf fa5c cebf 9af5 49be 40a5 6e3f
000001e0: 1ced 803f e698 d6bd d16a cfbf 149b 4b40
000001f0: fe0b 1fc0 805a 973f c560 a0bf e148 563e
00000200: 691c 90bf e333 a03e b64b 0dbf 3155 213e
00000210: bb6a 74bf a918 c83e dbf8 9c3f 0a32 f6bd
00000220: 49d9 a63f f3ab 81bf c254 a83f b219 223c
00000230: 0d17 80bf b3da 0dc0 cdc9 0cbe 5ac1 2cbf
00000240: 0c10 78be c5a7 b53f 05f0 04bd 44b4 8abf
00000250: 51e3 4b3e ec10 9fbe cae4 7d3f f0f5 433f
00000260: f0ba 0cbf 4612 643d 6111 1cbe a252 babf
00000270: 561b 5b3f 1d42 063e ef9a 03bf 12ba 9c3e
00000280: b714 a43f f7bd a6bf 121c b13e b2ea e9bc
00000290: c29b fa3e a627 59be 9afa 3bbf 4740 233f
000002a0: 3513 d7bf e0a2 5a3f bc93 6abc 1e78 943f
000002b0: f425 4b3e 29f3 8cbe 5803 52c0 66ec 11bf
000002c0: e44c 653f d0e3 febe dd3e 55bf 1b12 7b3e
000002d0: cf3d e33c c532 613e de8c 7a3e cabe 023e
000002e0: d6cb 89bf f2ae 0bbf 3bb7 24bf e95f f5be
000002f0: b2b4 183f 4df3 cdbe c98e 1a3e 21e9 363f
00000300: 7f5b eebd ee70 ac3d 6b20 72bf e666 edbe
00000310: ec86 523e 7cc8 fd3e ef4b a4bd 6354 0a40
00000320: 2be0 8fbf 797e b8bf eb81 073d b5b4 30bf
00000330: d723 bc3f b341 55be 91fe e8be 99fb 523f
00000340: 0de8 ebbe 531c 263f 298c 1bbe 1aa0 9fbf
00000350: dc6b 983e 65bc 9c3d f4ba a23f 14b9 7a3e
00000360: b538 41bf ca99 07c0 a6d6 02bf 60f1 a2be
00000370: 29ea febd 2dfd b03c 43e3 5abf a4bf 9fbe
00000380: 093e 78bf 9f1b 733c 5deb 75bc 9b1d 2140
00000390: 1748 983d cf8b eabd bcfb 64be 1155 733f
000003a0: f6fa d83d bd04 f63e 0530 6fbe 6282 eb3e
000003b0: c294 ccbc a6fd b5be d53b 7e3c 5d8b 593f
000003c0: e58d 383f 623b 06bf 771d d2bf 65d3 f93e
000003d0: 9e1d 2d3f e1e0 a5bf 4aed a0be b844 d53e
000003e0: 5768 e1be 442c a93e 9a04 a5bf c5bd 31bf
000003f0: fb34 2fbf 3492 cb3c de89 9a3e b869 be3f
-1.2160559 -0.55685616 -0.29860845 -0.51392657 0.25086135 -0.6245096 0.28338093 0.14428215
0.62166005 -1.2271148 0.87409544 -0.39019176 -0.0150597785 0.49034172 0.32536837 -0.039104607
0.015865447 0.08637091 0.30998293 -0.60957086 0.6004093 0.2835869 -0.10754148 -0.25499016
-0.75292313 -0.038072575 -0.41965178 1.2576553 -1.18184 0.5710523 -0.832372 0.28437865
0.55956095 -2.0655274 0.08029767 -0.2835248 0.053561173 1.5655307 0.43911028 -0.34416294
0.13013394 0.7146605 -0.93676406 0.58903897 0.3641933 0.14114754 -0.015484345 -0.09566442
1.6362704 0.49321526 -0.71459764 -0.117196314 -0.2719836 0.22987716 1.60961 -0.61705256
-0.6403905 0.68192166 0.64851296 -0.6503592 0.17078502 0.089184634 1.2227482 -2.7166889
1.3402187 -1.3445257 -3.9314666 -1.2204944 2.1618125 0.7289898 -0.9670653 3.6432002
2.1511645 1.4426938 1.1592227 -4.9251947 1.86467 -2.4207258 0.5276417 0.1160621
0.413177 -1.5217161 -1.5107175 1.7964371 1.4370779 2.5762131 1.0982821 2.3929274
3.1091914 -4.8519607 6.5298533 -2.9946523 2.2786033 -0.50601 3.2866383 2.8048465
1.5151001 -2.4820397 0.6711711 -0.5044761 -2.3574824 -0.72282505 -2.3459258 0.39266726
-3.6492755 -0.35722828 -1.0266509 0.96565497 4.577433 0.05560066 -1.5134124 3.0875711
0.24585056 3.0503244 -3.0385785 0.18305935 -0.9184581 -1.6122124 -0.19722596 0.932209
1.007236 -0.10478382 -1.6204473 3.1813402 -2.485107 1.1824493 -1.2529532 0.20926239
-1.125867 0.31289586 -0.5519365 0.15755154 -0.9547536 0.39081314 1.2263445 -0.12021263
1.303506 -1.01306 1.3150866 0.009893822 -1.0007035 -2.2164733 -0.13748856 -0.6748253
-0.24224871 1.4191824 -0.032455463 -1.0836263 0.19910933 -0.31067598 0.9917723 0.76547146
-0.54972744 0.05568149 -0.15241005 -1.4556468 0.85588586 0.13111158 -0.51408285 0.3061071
1.2818822 -1.3026723 0.34591728 -0.028554294 0.4894696 -0.21206531 -0.7342926 0.63769954
-1.6802737 0.8540478 -0.014317449 1.1599157 0.19838697 -0.27529266 -3.281454 -0.5700134
0.8957045 -0.49783182 -0.83299047 0.24518625 0.027739434 0.21992023 0.24467799 0.12768093
-1.0765331 -0.5456382 -0.6434209 -0.47924736 0.5965072 -0.40224686 0.1509353 0.71449476
-0.11638545 0.08419977 -0.94580716 -0.46367568 0.20559281 0.4956702 -0.08022296 2.1614006
-1.1240286 -1.4413596 0.033082884 -0.6902574 1.4698437 -0.20825844 -0.4550672 0.8241516
-0.46075478 0.6488697 -0.15190186 -1.2470734 0.2976979 0.07653121 1.2713304 0.24484664
-0.75477153 -2.1187615 -0.5110878 -0.3182478 -0.12447006 0.021605099 -0.85503024 -0.31200898
-0.9696966 0.014838128 -0.015009728 2.517432 0.07435625 -0.114524476 -0.22361654 0.95051676
0.10594742 0.4805049 -0.23358162 0.45997912 -0.024973277 -0.3554508 0.015517195 0.84978276
0.72091514 -0.5243436 -1.6415242 0.48794094 0.6762332 -1.2959253 -0.31431037 0.4165399
-0.44024917 0.33041584 -1.2892029 -0.6943019 -0.68440217 0.024849989 0.3018331 1.4876013

fc.0.bias f4 [32]
00000000: 2c6e 4dc0 738b 2c40 f958 53c0 9eb3 5dc0
00000010: 2335 73bf 58be 28c0 19b1 dbbf eb8e 28c0
00000020: 15c3 3ac0 f0db 44c0 0f13 9bbe 7c63 38c0
00000030: e1e8 adbf 8868 be40 5bab a73d 39a1 35c0
00000040: b947 8ec0 e0ca 10c0 54db f4bf 6296 46c0
00000050: bd2d 42c0 b98d 03c0 dc8e 56bf aeee 2ec0
00000060: 7181 48c0 ee2c 47c0 9c3f 32c0 6dc5 4dc0
00000070: cd5c 2cc0 b48b 4ac0 bafb 4bc0 3fea 6dc0
-3.2098494 2.6960113 -3.3023055 -3.464088 -0.95002955 -2.6366177 -1.7163421 -2.633723
-2.9181569 -3.075924 -0.30287978 -2.881072 -1.3586694 5.95026 0.0818698 -2.8379653
-4.446255 -2.2623825 -1.9129434 -3.1029286 -3.0340416 -2.055525 -0.83811736 -2.7333179
-3.1329005 -3.1121173 -2.7851324 -3.215175 -2.693164 -3.1647768 -3.1872392 -3.7174222

fc.2.weight f4 [16, 32]
00000000: 463b e73f ae06 06bf 440a 303f de2e b840
00000010: 1457 f13e 3c53 4740 d5e8 9e3f 5f6e f03f
00000020: 338b 2f40 e842 b640 45f0 4b3f 2352 4940
00000030: f822 2a3f b998 c1bf 3d58 2fbf d2e7 0640
00000040: bc3a 3440 8f7f 8b40 6af4 4f40 a07f 843f
00000050: f627 d53f f138 c53f 7dc4 f43f c93e 9040
00000060: 1fea 7340 ec32 5240 2c5c b940 55f6 d83f
00000070: 9df7 4740 16df 4e3f 44e7 3a40 58c5 8c40
00000080: 09c7 843f cf97 1f3d a138 4abf e38b 7d40
00000090: 3705 1a3f 1c9d 8f40 9d2f 0d3f 0bed e8bf
000000a0: 8c28 6040 71a1 dd3f c3c6 2cbf d567 d53f
000000b0: 823f 203f fa3a bf3d 773c 09bf 7cb4 0540
000000c0: acd0 d83f bc37 b740 982c 2140 d4cd 40bf
000000d0: 6126 3140 1859 df3f 34d0 953f 1afd ff3f
000000e0: ba84 1740 7ab8 3a40 5d33 3140 b926 573f
000000f0: ca74 d53f ad4c 76bf 04ab 3c40 7387 0540
00000100: 1a3f 353e c1c5 8dbe 08e1 f83d b34e a3be
00000110: 2c91 87bf fd45 d7bc 70a3 fabe 03e1 a5bd
00000120: 2464 aa3b 008f d8be 4d09 a5be 5a44 a6be
00000130: 071f c0be 9862 7ebe b638 9fbe df17 5d3d
00000140: 7f04 cabe ac25 e0be 401b 45be 02cf a7bd
00000150: 2942 253d b0e9 f93d ff25 02bf 1d4a c1be
00000160: 793d a8bd c489 863c aa28 c7be 277c 02bf
00000170: 7dca 173f 2bb4 e03d 6983 87be 189b 9ebe
00000180: 725e 28bf 99c3 3abe 394d 0040 32eb 6dbe
00000190: 1f13 94be fce2 ef3e 3db2 eabe ef76 a93f
000001a0: 96bf 9ebe b560 833e ab65 023f 6912 31bf
000001b0: 42f5 febe 4a92 9fbd 07cf b33e 7cd0 333f
000001c0: 288a 55bf 331e 52bf 2dc2 5ebf d884 ad3f
000001d0: 2947 a7bf 3423 263e 6c1f ebbf 005f 72bf
000001e0: 7350 62be 7db4 37bf ee56 48bd 5848 5c3d
000001f0: 2706 0cbf e338 973f 2546 85bd 5261 533e
00000200: f4c4 3e3c 64ff 3abf 4c5a 2cbe 1d8c ca3e
00000210: ac9e 0cbf 451c ffbd 62b1 2fbf 7e56 203d
00000220: 18a6 803f f956 66be 5635 babe 12a9 0cbe
00000230: 427c f2be b16c f0be a03c 5dbf 50ec 483d
00000240: 4337 65bd e64f acbe 6dc4 463e de1b 0e3e
00000250: 53c5 143f 642b d3bc 4c17 12be 4ed6 f03d
00000260: c1a2 cdbd 868d 3a3f 1d2b 443e 84b4 47be
00000270: 6f3b bd3e e479 d43c 2b92 debe 33b7 23be
00000280: 401f 513d 78bb 5bbe 241b 7bbe b6ad fbbd
00000290: 013a ffbd 07b0 6fbd fda1 a2bc 6050 513d
000002a0: f68b bbbd 09cc a9bd 0bed 26bd 5c0f febc
000002b0: 927d 9abe 4c47 89be 9b45 82be 5eee c73d
000002c0: 4f51 62be ae10 07be 1f82 3fbe 85b7 c33d
000002d0: 538f 18be 79cb f9bc e0e6 dbbd 68d0 c5bc
000002e0: 5ede b5bd 3865 75bc 0a20 dfbd 2191 85bd
000002f0: c086 563d e4b3 9bbc d852 d5bc fee7 423d
00000300: ba3e b63e e1d9 acbf 07a4 fb3d 817c 8b3f
00000310: 3cd7 a9be 29f3 633f fcc5 75bf efd9 193d
00000320: 549c 843f 6fd1 aa3e 588f e0bd 196e 8ebe
00000330: 50ce cb3d dbae 47bf 60eb 84bf 4324 d0be
00000340: 3df1 d13f 1e34 103f 9a7c f93e aefc 07bd
00000350: 3fdd 3d3c 413a cd3d 393f 1bbd a731 13bf
00000360: 6541 f9be 9ca4 82be 3c75 15be 17df 38bf
00000370: dec5 79be e4b0 51bd 1a9a 193f c475 d23d
00000380: cb72 843d 4ee8 24be 4d7c d3bc fdde 48be
00000390: c20c fbbd e553 9bbd 43f4 93be 467d b23d
000003a0: 9605 f5bc 9e75 b03d 9150 953c 1b5b 3c3d
000003b0: 14f1 e2be a90a 2ebe 07e7 1abe 0b9d 1b3d
000003c0: 9255 2fbe d98c bebd 62b5 05be 05a2 bfbc
000003d0: 3ed6 923d 5a68 7f3d 08ce 30bf cdce 883d
000003e0: 3571 88bd db11 4e3d e41b aabd 0e2e e9bd
000003f0: eb88 0d3e 8254 27bd 2847 59bd 0640 59be
1.8064964 -0.5235394 0.68765664 5.755721 0.47136748 3.1144552 1.2414805 1.8783683
2.742871 5.6956673 0.796635 3.1456382 0.6645961 -1.5124732 -0.68494016 2.1078992
2.8160849 4.359321 3.2492929 1.0351448 1.665282 1.5408002 1.9122463 4.507664
3.8111646 3.284358 5.7925014 1.6950175 3.124488 0.8080915 2.9203653 4.39909
1.0373241 0.038963135 -0.7899266 3.961663 0.6016421 4.4879284 0.5515078 -1.819734
3.5024748 1.7314893 -0.67490786 1.6672312 0.62596905 0.09337421 -0.5360789 2.089141
1.6938682 5.7255535 2.5183468 -0.7531407 2.7679675 1.7449064 1.1704164 1.9999115
2.367476 2.9175096 2.76876 0.8404346 1.6676266 -0.9621075 2.947938 2.0863922
0.17699853 -0.27689937 0.12152296 -0.3189598 -1.0591178 -0.02627849 -0.48952818 -0.08099558
0.005199926 -0.422966 -0.32233658 -0.32474023 -0.37523672 -0.24842298 -0.31097955 0.053977843
-0.39456555 -0.4377874 -0.19248676 -0.081937805 0.0403463 0.122027755 -0.5083923 -0.37751856
-0.0821485 0.016423114 -0.38898212 -0.5097069 0.5929335 0.10971864 -0.26467445 -0.30977702
-0.6576911 -0.18238677 2.0047133 -0.23234251 -0.28920838 0.46852863 -0.4583911 1.3239421
-0.31005543 0.2565972 0.50936383 -0.69168717 -0.49796492 -0.07791574 0.35118887 0.70239997
-0.83413935 -0.8207733 -0.8701504 1.3556166 -1.3068591 0.16224366 -1.8368964 -0.9467621
-0.22101001 -0.7175978 -0.048911028 0.05377993 -0.5469689 1.1814235 -0.0650752 0.20642594
0.011643637 -0.73045945 -0.1683132 0.39560023 -0.54929614 -0.12456564 -0.6863004 0.039144985
1.0050688 -0.22494115 -0.36368817 -0.1373637 -0.47360426 -0.46957925 -0.8642063 0.04905349
-0.055960905 -0.33654708 0.19410868 0.13877818 0.5811359 -0.025777526 -0.142667 0.117596254
-0.100408085 0.728722 0.19157071 -0.19502455 0.36959407 0.025937028 -0.43470892 -0.15987854
0.051055193 -0.21458232 -0.24522072 -0.12288992 -0.12462235 -0.058517482 -0.019852633 0.051102042
-0.09157555 -0.0829087 -0.040753406 -0.031013183 -0.30173928 -0.26812208 -0.2544373 0.09762262
-0.2210133 -0.13189957 -0.18701981 0.09556488 -0.14898424 -0.030492531 -0.10737395 -0.024147227
-0.08880304 -0.014977746 -0.10894783 -0.06521822 0.0523746 -0.019006677 -0.02604048 0.047584526
0.35594732 -1.3503991 0.12287145 1.089737 -0.33172023 0.8904291 -0.96005225 0.037561353
1.0360208 0.3336291 -0.10964841 -0.27818373 0.0995146 -0.78001183 -1.0384331 -0.40652665
1.6401745 0.56329525 0.48727876 -0.03319996 0.011588394 0.10020877 -0.03790209 -0.5749764
-0.48682705 -0.25516212 -0.14595503 -0.7221541 -0.24391887 -0.051194087 0.60000765 0.10276368
0.064672075 -0.16104242 -0.025816107 -0.19616313 -0.12258293 -0.07584361 -0.28897294 0.087153
-0.02990989 0.08616184 0.018226894 0.045985322 -0.44324553 -0.16996254 -0.15127192 0.037991565
-0.17122486 -0.09304208 -0.13057473 -0.023392687 0.0716977 0.062355377 -0.6906438 0.06680069
-0.066622175 0.050309997 -0.08306101 -0.11385737 0.13821761 -0.040852077 -0.053046376 -0.21215829

fc.2.bias f4 [16]
00000000: c216 c9c0 2430 92bf d1e8 8ebf a4a3 8d3e
00000010: 15d8 18be ed69 83be 1c19 cebf 7eb7 86be
00000020: 3140 f3c0 3196 7fbe 0ed1 f7c0 5415 01c1
00000030: b2ee 93c0 420a b6c0 2f94 e0bf 3828 d5bf
-6.284028 -1.1420941 -1.11648 0.2766391 -0.14926179 -0.25666752 -1.6101413 -0.26311868
-7.601586 -0.24959637 -7.7442694 -8.067707 -4.6228876 -5.688752 -1.7545222 -1.6652899

fc.4.weight f4 [5, 16]
00000000: 9208 d83a bd6a 3d3d aa11 3ab8 9a25 aabd
00000010: 563c 37be 50a5 c9bd 13f2 3cbe 1d56 ddbd
00000020: 6b1d 92bc aa37 6a3d 86c3 01bc 9bae 823d
00000030: a516 d1bd 7ab5 c33a 25ef 8a3d 5493 97bc
00000040: e86f 00ba 7b74 4dbd f063 253c ee37 273d
00000050: 9484 8e3e e9d9 73bd 384e 4bbb efb0 38be
00000060: e348 463c 8091 b63d 8c71 61bb d3eb 55bd
00000070: 4fd3 083e 5465 46bc c94e 0ebe 7eda ddbc
00000080: b95f 03bf 3261 e9c0 cfc9 c9bd de85 9bc0
00000090: 5456 47c1 6979 b6bc ae92 14bf a06d d2bd
000000a0: 1e35 f0bd dfc2 d9bd 8b8a 363e 37af 1abe
000000b0: 8d78 4bc0 983b 0dc0 4217 cfbe 29c8 8cbf
000000c0: 45f5 07bf 626d f0c0 aee3 6ebe dda1 9cc0
000000d0: 3ef8 49c1 721c 2b3e 6be9 69bf 6e47 983d
000000e0: 89e3 043e 3ba7 4f3e 69a1 42bd b266 75be
000000f0: ff8f 2dc0 0fa8 0fc0 ce05 35be bd06 b5bf
00000100: 8e68 07bf 4de6 e2c0 16e2 c1be 43e8 99c0
00000110: b74d 45c1 3813 f83d 8713 2abf a17a 6ebe
00000120: 46a1 133e 0440 2bbe 1441 f3bd a56d ebbd
00000130: 94b7 42c0 ac68 f8bf dabb 5bbe feb8 77bf
0.0016482046 0.04624437 -4.4362307e-05 -0.08307953 -0.1789411 -0.09845984 -0.18451719 -0.108074404
-0.017836293 0.05718199 -0.007920152 0.063809596 -0.10209397 0.0014931404 0.067838944 -0.018502869
-0.0004899488 -0.050159913 0.010094628 0.040824823 0.27835524 -0.059533987 -0.0031021964 -0.18036245
0.0121023385 0.08914471 -0.0034399955 -0.052226853 0.13361858 -0.012109119 -0.13897242 -0.027081724
-0.51317936 -7.2931147 -0.09852945 -4.860091 -12.458576 -0.02227469 -0.58036315 -0.102748156
-0.11728881 -0.10632872 0.17826287 -0.15105902 -3.1792328 -2.2067623 -0.40447432 -1.0998584
-0.53108627 -7.5133524 -0.2332904 -4.8947587 -12.623106 0.1671007 -0.9137179 0.07435499
0.12977423 0.20278637 -0.047517214 -0.23964956 -2.7119138 -2.2446325 -0.17677996 -1.4142681
-0.5289391 -7.090613 -0.37867802 -4.8096023 -12.331473 0.12113041 -0.66436046 -0.23288967
0.1441699 -0.16723639 -0.11877647 -0.114955224 -3.0424547 -1.9406943 -0.21458378 -0.9676665

fc.4.bias f4 [5]
00000000: 91ca 493f 8613 883f 86bf 9bc1 adb5 9bc1
00000010: 80cc 9bc1
0.78824717 1.0630958 -19.468517 -19.463709 -19.474854
