trained_model.pth (torch, 55308 bytes, 10 tensors)

fc.0.weight f4 [128, 14]
000000 94 87 a9 40 31 4c d5 40 94 57 c3 3e 70 31 01 be
       5.2978 6.6655507 0.38152754 -0.12616515
000010 e5 0a 4f 3e af c6 1e 3e 7e 15 a6 be b5 d4 b1 3d
       0.20219 0.1550548 -0.32438272 0.08683149
000020 8f ed 17 bf 57 af cc bd eb 06 6f bd e0 76 0c 3e
       -0.5934686 -0.09994381 -0.058356207 0.13717222
000030 6e c4 8d 3d 33 c6 3c bd 04 47 9a c0 24 a6 2d 42
       0.069222316 -0.046087455 -4.821169 43.412247
000040 a8 db bf 3e de 5e 54 be 26 87 a7 3d 75 56 c6 bd
       0.37472272 -0.20739314 0.081800744 -0.09684459
000050 5c b9 d5 be 62 b9 82 3e 7a 67 a9 bf 3f 22 8e 3f
       -0.4174298 0.2553206 -1.3234704 1.1104201
000060 a0 77 a3 3c e8 e7 a7 3d 05 bd 85 3c 52 85 1e 3d
       0.019954503 0.081985295 0.016325483 0.038701363
000070 8d 50 75 3f 3b a2 1d 41 e1 16 bc 3e f4 74 7b bf
       0.95826036 9.852107 0.36736205 -0.9822533
000080 f7 03 e7 bf 46 bc d9 3f 9e 4f d9 3e 49 b6 2d 3f
       -1.8048085 1.7010581 0.42443556 0.6785627
000090 a4 db ef bf 3a 26 86 bf ac 6d 78 bf 3f d1 48 3f
       -1.8738904 -1.0480416 -0.97042346 0.78444284
0000a0 00 9d db 3c dc 01 a2 bd 06 d0 29 40 c8 61 fe c1
       0.026808262 -0.07910511 2.6533217 -31.797745
0000b0 f3 98 09 3c e0 66 a9 3e e9 0c 93 bf c0 8a 23 bf
       0.008398282 0.330863 -1.1488315 -0.6388359
0000c0 bf 80 8f bf fc 2a 93 bf f9 92 a8 3f 46 b5 00 bf
       -1.1211165 -1.1497493 1.3169852 -0.502766
0000d0 2b dc 12 be 0f 9d 99 3e 44 c5 6c 3d 5d 2d 92 bb
       -0.143418 0.3000264 0.057805315 -0.004460974
0000e0 05 27 91 bf af 8f f2 c0 90 1e 00 bd a4 17 42 be
       -1.1340033 -7.5800395 -0.031279147 -0.1895433
0000f0 0c cd 06 3f 2e 16 0c 3f ee e3 38 bf a0 6f a6 be
       0.52656627 0.54721344 -0.72222793 -0.32507038
000100 d2 a3 61 3b 56 de e6 3f 3f ba 97 bf 7e 7c fa 3e
       0.003442992 1.8036602 -1.1853713 0.48923105
000110 77 f2 35 3d fe b7 6f 3c b3 5e 14 3f f3 d3 fd bf
       0.044420686 0.0146312695 0.57957 -1.9830307
000120 03 f5 f6 3e ae 56 18 3f 91 45 fc 3f 9d 62 96 3e
       0.48233804 0.5950726 1.970873 0.2937211
000130 a1 3f a9 3f 67 35 06 be 20 ac 81 bf f9 61 bf bf
       1.3222543 -0.13106309 -1.0130653 -1.4951774
000140 c7 1e aa bf 32 0a 81 bf ba 08 2a bd 07 34 88 3d
       -1.3290642 -1.0081236 -0.04151223 0.066505484
000150 9a 60 97 3f a7 dd 1b 3f a0 28 ea 3b e9 83 87 3f
       1.1826355 0.6088509 0.007145956 1.0587131
000160 7f 16 28 3e b3 74 55 bf 52 eb 11 3f 53 b1 da 3f
       0.16414832 -0.83381194 0.56999695 1.7085365
000170 6d 2d ba 3e b6 6b 0c 40 5d d4 5b be 53 b1 ad 3f
       0.36362782 2.1940742 -0.21467729 1.356974
000180 a0 68 90 3d 39 af 17 3e 51 b5 15 c0 51 1f 9f bf
       0.07051206 0.14812936 -2.3391917 -1.2431432
000190 61 42 a5 bc 18 63 0c 3f e7 0e 74 3f 83 cb a2 3e
       -0.020173253 0.54838705 0.9533524 0.31795892
0001a0 97 c1 94 3e 22 e3 cb 3e 7f 22 bf be 87 6c 00 3e
       0.29053947 0.39821726 -0.37331006 0.125414
0001b0 6a fd 45 bf 71 20 ee 3f 69 45 83 bc 0c 3a 90 bc
       -0.77339804 1.860365 -0.016024308 -0.017605804
0001c0 63 50 c7 bf c6 cf 1b c2 02 79 0e 40 6f b2 10 bf
       -1.5571407 -38.952904 2.2261357 -0.5652227
0001d0 ef ff 30 be 8a 19 83 3e 65 ae ab 3f d6 a6 cb be
       -0.17285131 0.25605422 1.3412596 -0.39775723
0001e0 b7 6a 44 40 f2 97 2b 40 1e 03 9d bb f6 31 cf bd
       3.0690134 2.681149 -0.0047916314 -0.10116951
0001f0 c1 8b f6 ba 49 bc 25 3c 7e 82 8f bd 25 70 53 c1
       -0.001880996 0.010115691 -0.07007311 -13.214879
000200 08 30 8d 3f 2b 4a 37 3e f4 5e 1a bf 19 91 54 3f
       1.1030283 0.17899387 -0.60301137 0.830339
000210 65 4d a6 bf c2 e2 37 3e 51 3d cf 3f 02 87 4d 3f
       -1.2992369 0.17957595 1.6190587 0.8028413
000220 57 69 56 3f fe 2c a1 3e f0 33 7a 3d 33 2e d1 bc
       0.83754486 0.3147964 0.061084688 -0.025534725
000230 b1 dc f2 3f 91 7a 9d 3e 6f 74 02 be 49 9c 89 3f
       1.89736 0.30757573 -0.12739728 1.075082
000240 5b 26 f7 3d 95 d6 45 bc fb 27 b5 3e 39 f1 35 bf
       0.120678626 -0.012075086 0.35382065 -0.710712
000250 ab c3 25 3e de 2f e7 bf 1a ae b7 3f af 53 07 40
       0.16187923 -1.8061483 1.4350007 2.1144826
000260 4b f0 dc 3c 16 c5 15 3e 04 0b ae 40 15 64 75 41
       0.02697005 0.14625964 5.4388447 15.336934
000270 18 10 a3 3e 7e 86 83 be 97 36 16 bd 9c 02 b2 3d
       0.31848216 -0.25688547 -0.036673155 0.08691904
000280 e1 63 72 3f 4f 1b e4 3e d2 26 99 be 1b eb 92 bf
       0.94683653 0.44552085 -0.2991243 -1.1477998
000290 1b 63 a5 be cd 4c 2b be 13 05 0d bd 1f 52 8c bd
       -0.32302174 -0.16728516 -0.034428667 -0.06851601
0002a0 c7 31 b5 3e c9 84 e8 40 e1 03 1c 3f b0 19 04 3f
       0.3538954 7.266209 0.6094342 0.51601696
0002b0 22 04 f8 3f 16 fd 19 bf be 5d ea be c2 60 31 bf
       1.9376261 -0.60151803 -0.45774645 -0.69288266
0002c0 ab b1 51 3f 21 2d db bf 0a 2e 47 3f 42 a9 9b be
       0.81911725 -1.7123147 0.77804625 -0.3040257
0002d0 d5 af f6 bc e7 b3 d1 3a 9a 81 95 c0 fe 3a f1 c0
       -0.03011314 0.001599905 -4.6720705 -7.538451
0002e0 88 61 f1 3e e8 23 dc 3d 06 a0 5c bd 86 cb 4e bd
       0.47144723 0.10749036 -0.053863548 -0.050487064
0002f0 68 a0 c5 3e c3 f8 6c be ad a5 50 40 50 a6 94 be
       0.38598943 -0.2314177 3.260112 -0.29033136
000300 e0 ec 73 be 49 e4 50 3e 37 03 05 bd 97 e1 5d bd
       -0.2382083 0.20399584 -0.03247377 -0.054170217
000310 ef fe 5b c0 51 7b 63 3f a6 d8 49 3d ef 3a f1 3e
       -3.437435 0.8886004 0.049278878 0.47115275
000320 81 f8 07 3f bf f2 98 3e f8 5e 5d bd da e8 4a be
       0.5311356 0.298727 -0.054045647 -0.19815388
000330 7e 3f b9 3f 9d 94 ca 3f 7e 95 1f 3f 06 a4 0a 3f
       1.4472501 1.5826603 0.6233748 0.5415653
000340 51 6d 5a 3d 29 a7 68 3d 56 d7 a0 bf 31 25 8f 41
       0.05332691 0.05680004 -1.2565715 17.89316
000350 05 12 14 3f 0a 31 10 c0 f2 95 15 c0 8e a6 a8 3f
       0.57839996 -2.252993 -2.337277 1.3175828
000360 3e 1e 65 bf 8b cf fc be e9 b9 83 be 24 11 74 be
       -0.8949927 -0.49377093 -0.25727776 -0.23834664
000370 1c 99 73 be ff 63 4d 3d 99 40 39 ba 7a 3c 55 bc
       -0.23788875 0.05014419 -0.0007066816 -0.013014907
000380 61 c5 1e c0 3d b1 d7 40 01 2b ff 3e 7c 98 ec be
       -2.480797 6.7403855 0.49837497 -0.46210086
000390 80 4f cf bf 52 41 4e bf 18 5a 1f be 48 79 0b 3e
       -1.6196136 -0.8056842 -0.15561712 0.13620484
0003a0 c4 36 b1 bf b2 91 8e bf 10 7b 41 3e f1 3d 2f bf
       -1.3844838 -1.1138213 0.18894601 -0.6845389
0003b0 b2 56 72 bd 91 0b a9 bc 0c c1 3f be 3a 62 1c 41
       -0.05916471 -0.020635398 -0.18725985 9.773981
0003c0 73 91 3e 3f 7c d6 98 be 5c 88 24 3e f0 89 80 bf
       0.7444069 -0.2985114 0.16067642 -1.0042095
0003d0 a1 eb e7 3f 65 84 e3 3e 3a 67 b9 3e 67 a3 f9 bf
       1.8118783 0.44436947 0.36211568 -1.9502991
0003e0 ad 3e 8c bf 67 38 27 bf 00 d1 b2 bc 60 14 2f bc
       -1.0956627 -0.6532044 -0.021828175 -0.01068601
0003f0 6a c9 2e 40 6a e1 e2 3e 2d 15 d3 3f 3a 68 08 40
       2.7310433 0.44312602 1.6490837 2.1313615

fc.0.bias f4 [128]
000000 b7 58 5b bf aa 0f 82 bf eb 39 f2 bf 21 43 48 bf
       -0.85682243 -1.016103 -1.8923925 -0.7822743
000010 37 56 8e bf b5 8d d1 bf d5 da e3 bf a8 af e3 bf
       -1.1120061 -1.637137 -1.7801157 -1.7787981
000020 63 5e b0 3f ca 31 2a bf 27 99 26 c0 5b e2 fe be
       1.3778805 -0.6648222 -2.6030977 -0.4978207
000030 4d 05 04 c0 c3 08 fc 3d bc 13 a6 bf 6a 1e b7 bf
       -2.0628235 0.12306359 -1.2974772 -1.4306157
000040 a2 ad f1 bf 86 00 87 bf 37 4a f6 be e1 4a 78 be
       -1.8881114 -1.0547035 -0.48103496 -0.24247314
000050 12 78 94 bf 55 25 a4 bf 97 31 bb bf 53 30 f4 3e
       -1.1599143 -1.2823893 -1.4624509 0.47693118
000060 45 f2 84 3f cf d6 11 c0 1b 8a b0 bf 4d 4e c4 be
       1.0386435 -2.2787359 -1.3792146 -0.3834099
000070 22 fa c9 bf d6 3f f8 bf bd 5e 2b c0 1f ac f1 bf
       -1.577946 -1.9394481 -2.6776574 -1.8880652
000080 31 d7 a7 3f da dd 36 c0 6e 52 f9 bf 26 29 15 c0
       1.3112546 -2.8572907 -1.947828 -2.3306365
000090 64 e7 b2 bf 9b a8 1b c0 d0 3d b5 bf 3e 7d 5e c0
       -1.3976865 -2.4321659 -1.4159489 -3.4763942
0000a0 a7 89 ac bf ac 02 b0 bf 21 e9 16 c0 86 d2 b0 bf
       -1.3479508 -1.3750815 -2.357979 -1.3814247
0000b0 ab aa 7d bf 2f 90 a1 bf 12 57 cd 3f 03 6b 13 40
       -0.99088544 -1.2622126 1.6042197 2.3034065
0000c0 b0 d6 f4 3e 82 56 86 bf be 76 e3 3e c6 8a 85 bf
       0.47820044 -1.049515 0.4442653 -1.0432975
0000d0 a8 bc 04 c0 5e f6 82 be bb c7 85 bf b4 ce 2b c0
       -2.0740147 -0.25578588 -1.0451578 -2.6844912
0000e0 1a 4f 15 c0 0d 45 24 c0 9a 5b 3b c0 8d ef 7e 3f
       -2.332953 -2.5667145 -2.927466 0.99584275
0000f0 22 c2 18 c0 9c cb c3 3e 61 6c b9 3d 27 38 21 c0
       -2.386849 0.3824128 0.09053875 -2.5190523
000100 53 67 30 c0 50 6e 3f 3f b1 34 21 c0 9c 37 fa bf
       -2.7563064 0.747777 -2.518841 -1.9548221
000110 9f 78 ef bf 39 c0 de bf ba 20 e3 bf d2 1d 1a c0
       -1.8708686 -1.7402412 -1.7744362 -2.40807
000120 14 b0 c0 be 32 00 93 bf 53 44 a6 bf e8 46 56 c0
       -0.37634337 -1.1484435 -1.2989601 -3.3480778
000130 80 ed a7 3e 1d cc c0 bf 86 ff 29 bf 99 88 92 3e
       0.32798386 -1.506229 -0.6640552 0.2861984
000140 2a 13 19 3e af bd 5b be 95 c8 ab bf 5d 74 21 c0
       0.14948717 -0.21459077 -1.3420588 -2.5227273
000150 ed 0d af be 99 25 44 3f d1 e1 b1 3f cf 7b fe bf
       -0.34190312 0.7661987 1.3897039 -1.9881533
000160 05 bf 1b c0 87 4c 84 bf 8e ad 61 bf 83 da 04 c0
       -2.433534 -1.0335854 -0.8815545 -2.075837
000170 18 df ab bf ca 0f 49 bf d5 47 57 c0 90 84 09 c0
       -1.3427458 -0.7853972 -3.3637593 -2.148716
000180 5a e4 3a bf 87 89 6b bf a9 2a ce bf 36 fb 63 bf
       -0.73004687 -0.92006725 -1.6106769 -0.8905519
000190 7d 97 81 be c3 cf 3e c0 d7 d7 fd bf 47 f6 1d c0
       -0.2531089 -2.9814308 -1.9831494 -2.4681566
0001a0 50 e7 62 c0 1c c8 45 bf 89 a3 0c c0 94 cc 36 c0
       -3.5453682 -0.7725847 -2.1974814 -2.8562365
0001b0 51 3f 98 3d d3 4e 1c c0 98 8b 9d bf d8 0a 4e c0
       0.07433952 -2.442311 -1.2308226 -3.2194118
0001c0 3d 5f fe be d6 e7 ad bf 31 58 e8 bf 50 cf c7 bf
       -0.49682036 -1.3586376 -1.8151914 -1.5610142
0001d0 43 d7 21 c0 f3 19 08 c0 1a 27 b3 be 8f 90 85 bf
       -2.5287635 -2.1265838 -0.3499077 -1.0434741
0001e0 12 95 ff be 20 bd 20 c0 3b 76 ed bf f4 63 d0 bf
       -0.4991842 -2.5115433 -1.8551706 -1.6280503
0001f0 46 c3 fa bf 30 dc 7d bf 8f 67 0b c0 1e db a9 bd
       -1.9590843 -0.99164104 -2.1781957 -0.082937464

fc.2.weight f4 [64, 128]
000000 cd da 0b c0 02 78 56 c0 dc ca ca be dc 83 3b 3e
       -2.1852295 -3.3510747 -0.39607894 0.18312019
000010 05 f5 0e 40 d6 0c f4 3f 24 88 52 3f 6f 8c 94 3f
       2.2337048 1.9066417 0.82238984 1.1605357
000020 8a b5 ee 3e b6 2b 4a 3f 87 ce c6 bf cd 9d 2a bf
       0.46622878 0.7897295 -1.5531777 -0.66647035
000030 79 68 e5 bf 1f 24 10 40 a2 54 74 3f eb 1b 03 40
       -1.7922508 2.2522047 0.9544164 2.048579
000040 b3 c5 53 bf b0 36 31 40 01 a4 e8 3f cb cf a1 3f
       -0.8272354 2.7689629 1.817505 1.2641538
000050 c5 14 81 be 40 f6 10 3d f5 c9 92 40 f6 47 8f 3f
       -0.25211158 0.035391092 4.587153 1.1193836
000060 15 64 0a 40 33 38 28 3f cd 0e 1f c0 50 08 08 c0
       2.1623585 0.65710753 -2.4852784 -2.1255074
000070 94 12 3a 40 81 60 03 3f 42 74 93 3f 7c cf 71 c0
       2.907384 0.5131913 1.1519854 -3.7782888
000080 d7 45 ad 3f 17 35 be bd ee 9d c7 3f ef 50 32 3f
       1.3536938 -0.0928747 1.5595071 0.69654745
000090 56 6e 86 3f 34 50 74 be 07 1d 67 3e 6a 7f b9 c0
       1.0502422 -0.2385872 0.22569667 -5.7968035
0000a0 d2 01 9e be 54 5a db 3d 8f 1a 4b c0 ea a5 25 40
       -0.30860764 0.10710588 -3.173496 2.5882516
0000b0 f7 cd a4 3e 81 31 98 bf f1 a6 52 3f 6d c7 0f 3f
       0.3218839 -1.1890107 0.8228598 0.56163675
0000c0 bd 52 a4 3f 9d 97 12 40 84 5a f6 bf 78 a4 fd 3e
       1.283775 2.2905037 -1.9246373 0.49539542
0000d0 69 9e 3a 3f 71 e0 d1 be 2c 6a a5 bf df d4 8e 3e
       0.72897965 -0.40991548 -1.2923026 0.27896783
0000e0 49 8f 35 c0 be 92 3c 40 66 9d 33 c0 c5 09 8c bf
       -2.8368704 2.9464564 -2.8064818 -1.0940481
0000f0 ed df 22 3f c6 2f d9 3e 24 69 1e 40 0c 80 00 40
       0.63622934 0.4241926 2.4751673 2.0078154
000100 b2 3d 32 c0 bb c0 0c 40 d7 79 04 40 d4 15 99 c0
       -2.7850156 2.1992633 2.0699365 -4.7839146
000110 39 72 a4 be 6a f5 8e 3d e7 69 8d 3f 46 50 2b c0
       -0.32118395 0.06980403 1.1047944 -2.6767745
000120 c5 10 1a 3f 74 1e 48 bf cc 65 70 3f 74 98 da be
       0.6018184 -0.7817147 0.9390533 -0.42694438
000130 fe ea 0e 3f 57 cf 5e bf 7b 03 a1 3e 39 d6 8d bf
       0.5582732 -0.87035125 0.31447968 -1.1081
000140 49 26 cb bf cd f8 33 3f be 76 e0 3e 91 18 f6 3f
       -1.5871059 0.70301515 0.43840593 1.9226247
000150 e0 d1 2d bd 1d 97 d7 3f 25 48 2c 3f df b3 49 3f
       -0.04243648 1.6842991 0.67297584 0.78790087
000160 a4 e2 c1 bf f3 ab 44 3d c1 f5 5e bf 99 9c 90 3c
       -1.514729 0.048015546 -0.8709374 0.017652797
000170 02 db a3 3f 83 5d c1 3f b6 ae d1 be 13 df 44 3f
       1.2801211 1.5106663 -0.40953606 0.76902884
000180 a1 66 a6 3d e4 37 3e 3b 6b 43 0d bf 98 5f 2c 3f
       0.08125044 0.0029025013 -0.55180997 0.67333364
000190 60 db b4 bf 4d f3 22 3f f8 cd 01 3f 93 9f 2e 3f
       -1.4129448 0.636525 0.5070491 0.6821224
0001a0 4b 5f 6f 40 e5 54 84 3f 37 84 10 3f a7 4e f7 3e
       3.7401912 1.0338408 0.56451744 0.48302194
0001b0 69 94 95 3f 07 ac fa be 58 82 4b 40 66 9c 07 40
       1.1685916 -0.4895937 3.1798306 2.1189208
0001c0 bd b2 b9 3f 5a 10 c6 bf 5f a5 a5 3f 54 9d f0 bf
       1.4507672 -1.547374 1.2941092 -1.8798013
0001d0 0e 94 80 c0 a1 a4 77 c0 b6 21 01 40 fb 06 b3 bd
       -4.018073 -3.8694232 2.0176826 -0.08741566
0001e0 32 ba 8f 3f 41 85 ce bf c4 89 cd be d8 27 e2 bf
       1.1228697 -1.6134416 -0.4014417 -1.7668409
0001f0 cd 49 e9 be 92 1d b7 bf fc 89 bc be 41 04 d9 3f
       -0.45564118 -1.4305899 -0.36824024 1.6954423
000200 d1 bc 87 be 14 a6 ed bd 29 fb f2 bd f1 6e 59 be
       -0.26511243 -0.116039425 -0.11864311 -0.21233727
000210 8a df bb bd ce db b0 bd 8f 7d 17 3d a7 7b 2f 3d
       -0.09173496 -0.086356744 0.036984976 0.042842533
000220 f2 c1 56 bd f2 0b 21 be f0 26 f0 bd 37 35 76 be
       -0.052431054 -0.15727213 -0.11726177 -0.24043737
000230 94 37 3e be 05 3c 82 3c ad 81 b7 bd f7 02 ad 3d
       -0.18575889 0.01589776 -0.089602806 0.08447831
000240 66 26 21 3b 69 36 58 be 95 b6 84 bc 5f 3d 1b be
       0.0024589538 -0.21114506 -0.016200343 -0.1516013
000250 aa 74 e9 bd 52 5d 1d be 67 af e1 3c 61 7d 81 bd
       -0.11399205 -0.1536763 0.027549459 -0.06322742
000260 fd 52 0b 3e a1 09 85 bd 6f 34 3d be d9 e4 d7 bc
       0.13605876 -0.06495977 -0.18477033 -0.02635424
000270 5a 87 0d 3e ae 87 ba bd e6 46 40 bd 10 59 2f be
       0.13821164 -0.0910791 -0.046942614 -0.17123818
000280 a9 68 e4 3c 6b d1 8a 3d bf 15 7e bd 70 bc 15 be
       0.027881937 0.067782246 -0.062032457 -0.14622664
000290 3d 29 19 b9 97 fd 6c 3d 6c fd 90 bd 77 c8 73 bd
       -0.0001460658 0.05785903 -0.070795864 -0.05951735
0002a0 d7 86 a6 bc 44 c9 7b bd c1 17 13 bd cd 43 b6 3e
       -0.020327969 -0.06147124 -0.035911325 0.35598603
0002b0 85 d9 74 be 22 03 1b be c9 7a 1a 3b dc 09 85 bd
       -0.23911102 -0.15137914 0.002357172 -0.06496021
0002c0 a3 af e2 bd 83 52 44 be 1e 85 1c be 85 20 13 be
       -0.11068656 -0.191721 -0.15285155 -0.14367874
0002d0 41 79 17 be 00 b5 80 bb 45 ae 26 3e 15 9f d0 3d
       -0.14792348 -0.003927827 0.16277416 0.101865925
0002e0 ee 01 27 be 02 06 c3 bd c3 ad 37 bc 15 e0 9e be
       -0.1630933 -0.0952263 -0.011210862 -0.31030336
0002f0 e9 60 e0 3d ea 2d 24 be 0c d4 b9 3b 93 00 c2 bd
       0.10955984 -0.1603314 0.00567103 -0.09472766
000300 ad 48 f7 3c d7 9a e4 bb 97 72 39 3b 63 cf b4 3d
       0.030186022 -0.006976466 0.002829706 0.088286184
000310 81 b1 78 bd 73 0e 60 be 11 6b b9 bd 56 62 68 3c
       -0.060716156 -0.21880512 -0.090536244 0.014183601
000320 26 d9 18 be 7f 46 6d be 97 2e 00 be 04 4d 4d bc
       -0.14926586 -0.23171423 -0.12517773 -0.012530569
000330 75 79 c9 bc 13 cd ae be 6b d8 28 3d f5 d1 ee bd
       -0.024594048 -0.34140834 0.041222017 -0.1166114
000340 92 29 c0 3d ed 9c 05 be 24 fa 10 be 47 31 2e bd
       0.09382929 -0.13048144 -0.14157921 -0.042527463
000350 91 6d 6d bd 84 ab 6a be d2 c9 b3 bc 4a 90 7b bd
       -0.05796582 -0.2291699 -0.021946821 -0.0614169
000360 60 85 d0 bd 7a 89 17 be 9f 60 ec bd 71 be 24 bd
       -0.10181689 -0.14798537 -0.115418665 -0.04022068
000370 02 8b 98 3d 74 46 85 3d 6c c6 ce 3d d3 f2 04 be
       0.07448389 0.065075785 0.1009644 -0.12983255
000380 79 0b 7e 3c 27 19 5a bc 37 03 ab 3d b1 6c b9 bd
       0.015505665 -0.013311661 0.083502226 -0.09053934
000390 4b 4c 95 be 5a 29 fc 3d f5 0e cc bd 6a a1 70 be
       -0.2915977 0.12312575 -0.0996379 -0.23499075
0003a0 ae 1e f5 bd 68 6f b6 3d c1 1a fb bd 90 3b 4e 3c
       -0.11968742 0.08907968 -0.12260962 0.012587443
0003b0 d2 f1 b9 bd 26 03 e6 3d 27 71 db bd eb 48 06 bd
       -0.09079327 0.11231069 -0.107149415 -0.032784384
0003c0 85 76 52 3d 5e cc 37 3e 0d 28 81 3b e5 8c c8 3c
       0.05138256 0.17949054 0.003941542 0.024481246
0003d0 1c 9d 44 be 69 c5 ce bd 32 88 35 be a0 4a 4c be
       -0.19200557 -0.10096247 -0.17727736 -0.19950342
0003e0 6e 5c 12 be 60 fc c3 bd 88 b4 ac 3c 75 de 5a be
       -0.14293072 -0.09569621 0.021082178 -0.21373923
0003f0 11 ef 40 be a1 53 17 3d 59 c6 3e bd 26 d5 45 3d
       -0.18841197 0.03694499 -0.046575878 0.048298977

fc.2.bias f4 [64]
000000 23 9f 85 40 55 5f cb bd c9 7b 17 3f a1 92 0c bf
       4.175676 -0.099302925 0.59173256 -0.5491124
000010 3f f0 10 bf 8b d3 2d bd ca 63 26 be 40 61 2b c0
       -0.56616586 -0.04243807 -0.16249004 -2.6778107
000020 6e dd 0a be a7 fc 05 be f6 4f 8e bf 14 aa 06 be
       -0.13561031 -0.1308466 -1.1118152 -0.13150817
000030 9e fb fd bf 45 7a 35 bf f6 1f b3 c0 fa 26 35 c0
       -1.9842412 -0.70889693 -5.5976515 -2.830504
000040 31 97 01 c0 d9 39 b9 bd b1 0d 26 c0 56 ee 06 be
       -2.024853 -0.09044237 -2.5945857 -0.13176855
000050 71 07 62 bd b2 68 04 be 48 4e 90 be 52 e6 89 bd
       -0.055182878 -0.12930563 -0.28184724 -0.06733383
000060 3e 6b 87 bf 27 92 c2 3e f6 85 1f be 8b d3 44 3f
       -1.0579603 0.3800213 -0.15578446 0.7688529
000070 d9 9e d9 bd 64 5a 26 c0 c7 fb 1a c0 6d 95 22 bc
       -0.10626001 -2.599267 -2.4216173 -0.009923321
000080 8b 37 df 3d aa f8 0a c0 3f b5 99 bd d8 90 41 c0
       0.10899266 -2.1714272 -0.07505273 -3.0244656
000090 9c c6 6a bd 53 2d 29 be 49 45 c0 bd 90 3a f7 bf
       -0.057318315 -0.16521196 -0.09388215 -1.9314747
0000a0 f9 07 12 c0 f2 57 28 bd 50 9c 1d 40 da 20 c3 bf
       -2.2817366 -0.041099496 2.4626656 -1.52444
0000b0 44 8d 1a be 98 26 41 c0 b1 4c 89 3e 34 1d 21 3f
       -0.15092951 -3.0179806 0.26816323 0.62935185
0000c0 03 1f 75 bd 1c 3e 48 bb 69 f7 46 bf b6 0e 84 3b
       -0.05984403 -0.0030554598 -0.7772127 0.004030074
0000d0 45 a3 37 3f f2 3e 9a be 86 f1 73 bd 11 2f 80 bd
       0.71733505 -0.30126148 -0.059556507 -0.06258977
0000e0 5e 47 51 c0 3b 3e 13 be 28 ce 97 bd 18 b3 7c bf
       -3.269981 -0.14379208 -0.07412368 -0.98710775
0000f0 60 6f 93 bf 48 9e 82 bc 95 5f 7d c0 73 60 2e bb
       -1.1518364 -0.015944615 -3.9589589 -0.0026607781

fc.4.weight f4 [32, 64]
000000 c5 0c 6b bf 9f 1c 9d bd db cf 8a 3f 09 64 97 3f
       -0.9181636 -0.07671475 1.0844682 1.1827403
000010 8a 70 b2 3e 25 50 e1 3c aa d2 cc bd bf 56 e7 3f
       0.34851485 0.027504036 -0.100011185 1.8073348
000020 cb 57 be 3d d2 ff ec bd 59 28 4b 3f e3 cc 13 3d
       0.09294089 -0.11572231 0.7935844 0.036084067
000030 22 f1 15 40 73 e9 99 be af 51 36 40 77 02 2d 3f
       2.3428426 -0.3006092 2.8487356 0.67581886
000040 72 6c 02 40 7a 90 da bd 89 bc 4d bf fe 6e e1 3d
       2.037869 -0.10672088 -0.80365807 0.11007498
000050 23 cc fe 3c 6e e7 f0 bd 43 9a 13 be 69 20 5b c0
       0.0311032 -0.11762892 -0.14414315 -3.4238532
000060 ec 9f bb 3f 1a e8 aa bf 6b ba be 3a d3 24 4a 3f
       1.4658179 -1.3352082 0.0014551406 0.7896244
000070 4c f8 14 bd 1f 4b 6c c0 4f a4 65 40 df e9 4c 3d
       -0.036369607 -3.692085 3.5881536 0.050027724
000080 45 48 ea bf 86 ac 19 40 48 22 1b bc 2c 1e 5b 3f
       -1.8303305 2.401155 -0.0094686225 0.85592914
000090 71 42 1b 3c d2 bc 17 be 8d 57 9c be b3 59 1f be
       0.00947629 -0.14818123 -0.30535546 -0.15561561
0000a0 56 6f 90 bc f6 5f e6 bd 0a d4 8b 3f cf 43 9b 3f
       -0.017631214 -0.11248772 1.0924084 1.2130069
0000b0 80 27 8e 3a 2b 6d 84 3f 61 ee fc bf a9 9b dd 3f
       0.0010845512 1.0345815 -1.9760247 1.7313129
0000c0 7f b5 3f 3c 27 d4 c5 bd 21 43 82 3f fa 6d 17 c0
       0.011700987 -0.096596055 1.0176736 -2.3660874
0000d0 e8 7d 50 c0 5d a4 4c bf f1 0a 61 3d 23 7d 21 be
       -3.2576847 -0.799383 0.054942075 -0.15770392
0000e0 43 52 a9 3f 6b 4d 80 3c ad a6 ae 3e 3e 95 3b 3f
       1.3228229 0.015661916 0.3411154 0.732746
0000f0 b8 af 78 3f 59 ff 98 bd 3c 90 22 be be b5 b7 bd
       0.97143126 -0.07470579 -0.15875334 -0.089702114
000100 fc f7 3f be 63 d9 63 3d 07 8b 0d be e0 32 e0 bc
       -0.18746942 0.055627238 -0.13822566 -0.02736801
000110 b0 1e 94 bc 48 2b ba bd b0 ad 76 bd d7 e7 a1 bd
       -0.01808104 -0.090902865 -0.060224235 -0.07905548
000120 78 32 f6 3d 90 5d 84 3d b6 71 b1 bd 84 a0 0b bd
       0.12021345 0.06463158 -0.08664267 -0.034088627
000130 6c bf 15 bd ee 85 86 bd d5 8a 00 bd 8a d9 42 3c
       -0.036559507 -0.06568514 -0.0313824 0.011892686
000140 a5 ea 09 bd 40 ac 17 bd eb c5 d4 bd 64 10 2d 3d
       -0.03367104 -0.037029505 -0.10389312 0.04225196
000150 4e 7b e8 3d d0 12 83 3c 7c d6 72 3d 35 8a 0e be
       0.113516435 0.016000181 0.05928658 -0.1391991
000160 11 6e 9b bd 6b e3 07 bd 00 b4 39 ba 24 bf d3 bd
       -0.07589353 -0.033175867 -0.0007084012 -0.103391916
000170 80 b0 3b 3c c5 ff fa bd 70 e5 c0 bd 0c f3 b1 bd
       0.011455655 -0.122558154 -0.09418762 -0.08688936
000180 cd a1 26 be f0 02 f0 bd 90 aa 9f 3d 2d a6 7d 3c
       -0.1627266 -0.1171931 0.07796204 0.015481514
000190 91 33 0d be 70 c9 32 3d 04 6f 12 3d ee 45 b9 bd
       -0.13789202 0.043649137 0.035750404 -0.09046541
0001a0 0c ac cb 3c 48 e9 82 3d 0a ae 65 bd 15 e4 a5 bc
       0.024862312 0.06392151 -0.05607418 -0.02025036
0001b0 f8 86 2a 3d d9 e7 19 3d 6a 20 e7 bd a2 93 9d bd
       0.041632622 0.037574623 -0.11285479 -0.07694174
0001c0 34 c2 1f bd 10 40 ab bd 1c 73 d2 bd 2c 68 08 be
       -0.039003566 -0.08361828 -0.102758616 -0.13320988
0001d0 75 cd cb bd 18 8f 72 bd 47 8c ad bd 32 f0 89 3d
       -0.09951297 -0.059218496 -0.084740214 0.06735267
0001e0 a0 cd 68 3d 14 a8 c9 bd 5a 3f 22 bd 75 49 ba bc
       0.056836724 -0.098465115 -0.039611198 -0.022740105
0001f0 27 95 01 be 24 62 27 bd 28 1a f0 bd 86 91 37 bd
       -0.12654553 -0.04086508 -0.11723739 -0.044816516
000200 b7 e4 23 be e9 e8 a5 3d 74 fb e9 be ee 48 08 3f
       -0.16005217 0.08101065 -0.45699656 0.5323628
000210 6e a5 ec bd fc cc bd bd 8e d5 1e 3c 73 45 fe c0
       -0.11554991 -0.09267613 0.00969447 -7.9459777
000220 b5 e7 e9 3d ae dc 3a 3d 59 16 1b c0 ac a3 d1 bd
       0.11421148 0.045620613 -2.423239 -0.10236296
000230 ab b9 6b bf 40 f5 41 3d 21 10 1f bf 0a 90 f8 bf
       -0.9208018 0.04735303 -0.62133986 -1.9418957
000240 51 68 6f c0 76 80 ee bb 44 68 26 3e e2 7b e0 3c
       -3.740742 -0.0072784973 0.16250712 0.027402822
000250 63 99 e3 bd 6d a2 68 bd ef b9 3d bd ac dd 52 3f
       -0.111132406 -0.056795526 -0.0463199 0.82369494
000260 82 3f 91 3f be bf 47 be 05 6e 01 be e2 75 ef bf
       1.1347506 -0.19506738 -0.12639625 -1.870785
000270 04 16 29 3d e4 2b 30 c0 e7 94 64 3f 35 da a2 bc
       0.04128076 -2.7526789 0.89289707 -0.01987944
000280 2f 9a b7 c0 f9 8d ef be d7 b2 b5 bc 0c 72 7f bf
       -5.7375712 -0.46788004 -0.022180004 -0.99783397
000290 9f e8 05 be 20 5f 20 be 3d 01 1f 3e a8 5c e9 bc
       -0.13077019 -0.15661287 0.15527816 -0.028486565
0002a0 44 74 01 c0 59 f4 85 3d d2 9d 3a 3f 80 01 2e 3f
       -2.0227213 0.06540746 0.72897065 0.6797104
0002b0 73 69 8d bd a6 d7 17 3f ec 59 c5 bf 72 51 c0 be
       -0.069048785 0.5931343 -1.5418067 -0.37562138
0002c0 df ba 15 3e a8 ea b7 bd 33 45 70 be a2 8c ad 3f
       0.14622067 -0.08980304 -0.23463897 1.3558543
0002d0 80 45 90 bf e4 f1 7e c0 5d 1b bd bd 0e 1d 91 bd
       -1.127121 -3.9835138 -0.09233735 -0.0708562
0002e0 bd 04 84 bf 09 c7 09 3e 36 13 3d bd b7 17 c9 3b
       -1.0313946 0.13454832 -0.0461609 0.00613686
0002f0 09 0c ff be a3 09 0d 3c e3 08 25 bf de 37 24 3d
       -0.4981387 0.008608255 -0.64466685 0.04009234
000300 e9 51 bb bf ac 7c 20 bd a9 c3 85 3d d6 85 30 bf
       -1.4634372 -0.039181396 0.0653146 -0.6895422
000310 41 b9 02 3f 2b 8e 88 bd 7a a0 5b bd 75 68 1a c0
       0.51063925 -0.066677414 -0.05361984 -2.4126256
000320 89 f9 81 3d 91 e8 01 bd 6e 65 af 3e c8 08 db bc
       0.06346423 -0.031715933 0.34257072 -0.026737586
000330 f7 42 0f 40 e0 16 a3 3e 00 d1 e9 3e 05 0e 1f 3f
       2.2384622 0.3185339 0.45667267 0.6213077
000340 45 e0 9b c0 18 9f 44 3d a4 d4 2c 3f 1d fd 84 bd
       -4.8711267 0.048003286 0.67511964 -0.0649359
000350 b7 99 04 be 88 c2 1d 3d aa 01 6a 3e 43 ab d2 3f
       -0.12949263 0.038515598 0.22852197 1.6458515
000360 18 f7 82 3f 4a 77 20 bf 28 b1 bf bd 20 af 59 bf
       1.0231657 -0.6268202 -0.09359962 -0.85032845
000370 82 ab 75 bd 39 7d 86 3f ba 78 49 40 f9 fc c6 bd
       -0.059978016 1.0506965 3.1479936 -0.097162195
000380 c5 02 d9 3e 01 82 ac 3f 25 be 8b bd d7 ab cd 3f
       0.42384925 1.3477174 -0.068233766 1.6068066
000390 ee 73 5a 3a 6a 88 39 be a9 6a c7 3f 09 78 bc 3f
       0.0008333315 -0.18118444 1.5579425 1.4724132
0003a0 0b 10 c5 3f 8c 5f 88 bd 6e d8 4a c0 68 40 c6 be
       1.5395521 -0.06658849 -3.1694598 -0.38721013
0003b0 0a 32 96 bd b8 c3 40 40 d8 26 0c c0 88 fb 93 3f
       -0.07333763 3.0119457 -2.1898708 1.1561136
0003c0 28 9c 04 be fb d6 b0 3c a3 22 70 3e 7b 28 d7 bf
       -0.12950194 0.021586886 0.23450713 -1.6809229
0003d0 d0 71 de 3f 69 86 dc 3e 37 49 49 bd 0b 46 a0 3c
       1.7378483 0.43071297 -0.04914209 0.01956465
0003e0 b7 b6 36 bf 14 82 40 bd ab 29 9f 3e f0 2d 8f bf
       -0.7137255 -0.046999052 0.31086478 -1.1185894
0003f0 49 d9 ba 3f ac 01 38 bc cd 18 c0 3f 11 4e cb bd
       1.459756 -0.011230867 1.5007569 -0.09926999

fc.4.bias f4 [32]
000000 de b5 93 c0 c1 a0 a0 be 31 17 2b bf 66 6b f0 bf
       -4.6159506 -0.31372645 -0.6683226 -1.8782775
000010 34 53 24 c0 33 c8 59 c0 34 a2 23 c0 f4 1b 96 be
       -2.5675783 -3.4028442 -2.556775 -0.29318202
000020 55 b9 61 bc 9f 66 37 c0 ee 93 ea 3e ba d7 6f c0
       -0.013777097 -2.8656385 0.45815986 -3.747542
000030 2c c7 a7 be cd 74 1c c0 1c 84 b7 bf bd 7c d3 bf
       -0.32769144 -2.444629 -1.4337192 -1.6522442
000040 89 59 eb 3e 30 05 a5 c0 ca a9 25 bf 10 e9 c0 be
       0.45966747 -5.1568832 -0.647122 -0.37677813
000050 2a ba 84 c0 54 44 15 3f 2c 1e 84 c0 cb fe 71 be
       -4.147725 0.58307385 -4.128683 -0.23632352
000060 bf 1e 98 bf 3e 95 f9 c0 95 92 69 bf a1 49 56 40
       -1.1884383 -7.799468 -0.9123929 3.348244
000070 02 d0 87 bf f8 1d ab c0 91 97 ef c0 1b d1 86 bd
       -1.0610354 -5.3474083 -7.4872518 -0.065828525

fc.6.weight f4 [16, 32]
000000 cf cc 4f bf de 83 42 3e 5b 71 12 3f 1f 72 fc be
       -0.8117189 0.18995616 0.57204217 -0.49305817
000010 c7 b9 b3 3e 3a 93 4a 3f be 60 42 be 8f 7f ed bd
       0.35102674 0.791309 -0.18982217 -0.115965955
000020 13 fd 20 3f 07 b4 02 3f 8d e8 81 bb 84 a8 ae be
       0.6288616 0.5105595 -0.00396449 -0.34112942
000030 e3 f0 c4 bd 59 19 99 bd 39 fb 93 be 5e 4a 50 be
       -0.09616258 -0.07475538 -0.28902605 -0.20340869
000040 4b b5 3e 3f e2 20 f9 be 9d 51 d0 ba a1 6e cd 3c
       0.7449538 -0.486579 -0.0015893463 0.025077166
000050 e2 27 07 bf 20 5a 64 3f 3d 90 1d 3f 02 6b be 3d
       -0.5279523 0.8920002 0.61548215 0.09297754
000060 ba 06 b2 bd e9 a9 cf be ee 8d c2 be b0 b9 14 bf
       -0.08692689 -0.4055932 -0.3799891 -0.58095837
000070 23 a6 a4 bd f6 76 c9 be 6b 5a 32 3f 0b ef 58 3f
       -0.080395006 -0.39348572 0.69669217 0.8473975
000080 01 1b 53 bf 80 ed 27 bd 2d 80 3b 3f 76 54 7a 3c
       -0.8246308 -0.040997982 0.73242456 0.015278926
000090 fa 2f ee 3d 1e 5c a9 3f 97 ae 80 bf a8 2d 59 3c
       0.116302446 1.3231237 -1.005328 0.013255514
0000a0 0c 65 3b 40 62 ff 5f 3f 52 ca 9c 3e 52 c1 4b bf
       2.9280424 0.8749906 0.30623108 -0.7959186
0000b0 99 3f 08 be c1 23 cc be 48 e1 41 bf cd 16 a4 be
       -0.1330551 -0.39871028 -0.75734377 -0.32048646
0000c0 a9 b6 4e bf a8 69 79 bf 73 67 22 c0 66 7f 18 3c
       -0.8074747 -0.97426844 -2.537564 0.009307718
0000d0 4d 78 2d bf 9f 09 72 3f 80 d8 4c 3f e4 64 86 bc
       -0.6776169 0.9454593 0.8001785 -0.01640553
0000e0 4f 67 ae bf da 3a f4 be 8d 06 98 bf c4 87 ed be
       -1.3625277 -0.4770115 -1.1876999 -0.46392643
0000f0 14 bc 42 3e 84 14 3a bf e0 04 84 3f 6f 91 8d 3f
       0.19017059 -0.72687554 1.0313988 1.1060008
000100 4f 7f bd be 94 04 ce bc 16 c7 85 3f 84 9d 37 bf
       -0.3701119 -0.025148667 1.0451381 -0.71724725
000110 a9 8a 09 3f e1 71 41 3f c3 07 30 bf 2d 93 2f 3e
       0.53727204 0.7556439 -0.68761843 0.17145987
000120 da 9b 1e 3d 25 ec 63 3f 47 41 52 3e 5f 46 7f be
       0.03872285 0.890322 0.20532714 -0.24929188
000130 9e 45 8c 3d 5e 34 ff 3d 5a 3d cd 3d ba 37 14 bf
       0.06849216 0.1246116 0.100214675 -0.5789753
000140 58 a9 ad 3f e7 e6 91 be 3c 2e d7 bd 5d 08 b0 3d
       1.3567305 -0.28496477 -0.105068654 0.08595345
000150 92 9c 80 be 16 4e 0a 3f e6 a4 7b 3e 06 f1 9a bd
       -0.25119454 0.540254 0.24574623 -0.07565503
000160 3f de e0 3c cb b6 ca 3d 9a cf 95 bf 67 3a f5 be
       0.027449725 0.09898146 -1.170398 -0.4789612
000170 c3 d1 6e 3e a4 50 34 be ba cc 23 3f 87 79 0f 3f
       0.23322205 -0.17608887 0.6398426 0.5604481
000180 e1 c5 42 bf 27 64 9a 3d 23 9b 3a 3f d4 29 79 bf
       -0.7608319 0.07538634 0.7289297 -0.9732945
000190 89 a9 e3 3e df 19 c0 3e f5 07 b2 bc 6b 59 76 3e
       0.44465283 0.37519738 -0.02173231 0.24057548
0001a0 93 3f 13 3f 2b 5e 2c 3f 70 3d 20 3e 6c c5 96 be
       0.5751888 0.6733119 0.15648437 -0.29447496
0001b0 4a f4 de 3a 61 ce 15 be 01 18 27 3e 0f fd 21 bf
       0.001701006 -0.14629509 0.1631775 -0.6327676
0001c0 53 25 88 3f 04 10 2f be e0 5d 06 bf 20 89 06 be
       1.063639 -0.17095953 -0.5248699 -0.13138247
0001d0 5b 7e 86 be 24 6d f6 3e 7e 2d 3b bf 93 cd 3c 3c
       -0.26268277 0.48130143 -0.7311629 0.011523622
0001e0 cb 23 15 3e 11 fd a8 be 3a 8d 81 be 85 51 d7 be
       0.14564435 -0.33005574 -0.2530306 -0.42054382
0001f0 28 91 ce 3d 52 2b 73 bf ff fc 0a 3f 32 18 4e 3f
       0.1008628 -0.94987977 0.5429229 0.8050567
000200 44 ad 4b be 6a 5e 4b bd 3d c1 ad 3e 98 ac 9b be
       -0.19890314 -0.049650587 0.33936492 -0.30405116
000210 13 89 8b bd c9 55 02 3e 31 26 4b bd e2 cb 23 be
       -0.06813254 0.12728037 -0.04959697 -0.15995744
000220 fa b7 b4 3e b2 db 7e bd 11 85 93 be 0a 1b ae bd
       0.35296613 -0.062221237 -0.2881246 -0.08501251
000230 8a 31 4a bd ab 9a b6 3d a7 53 93 bd b2 51 5b be
       -0.04936365 0.08916219 -0.0719369 -0.21417883
000240 8f 84 09 3f db 08 99 3c 9a d8 6c be cd 85 44 3e
       0.53717893 0.01868098 -0.23129502 0.19191666
000250 6f 0c 11 bd ac 27 90 3d b0 fa b6 be 86 a6 f2 3d
       -0.03541225 0.07038817 -0.35738134 0.11848168
000260 bf 05 b0 bd ea b1 89 be 5f 5f 80 be 3d e1 a2 be
       -0.08594846 -0.2689355 -0.25072762 -0.31812468
000270 3f 83 25 be 99 7a 0b bf 8d 96 a0 3e 09 ac 04 3f
       -0.16163348 -0.54483944 0.3136486 0.51825005
000280 e6 45 0e bf 1a 72 5e bd 77 8c f2 3e dd 01 6d bf
       -0.55575407 -0.054308034 0.4737279 -0.9258097
000290 e2 73 62 3f 73 f0 a3 3f e9 fe 1a c0 2d 06 b0 3d
       0.88458073 1.2807754 -2.4218085 0.08594928
0002a0 c6 a8 46 40 f3 13 82 3f 39 b7 82 bd 71 c7 38 bf
       3.104051 1.0162338 -0.06382603 -0.72179323
0002b0 4a 10 76 3d 86 23 bf bd 01 f9 d0 be 4a 4b 09 bf
       0.06007413 -0.093329474 -0.40814975 -0.53630507
0002c0 42 25 50 3f 0d 17 f9 be 64 7c 73 bf 05 07 ad be
       0.8130685 -0.486504 -0.9511168 -0.33794418
0002d0 2c 3b 2e bf b2 94 56 3f 86 79 aa 3e 25 30 7c 3e
       -0.6805904 0.8382064 0.3329584 0.2462774
0002e0 96 40 ec bd 09 c5 f5 3e 53 ef 58 be 31 66 90 bf
       -0.11535756 0.48001888 -0.21185045 -1.1281186
0002f0 b9 6d 56 3d 7a 84 8a 3e e0 6c 8f 3f ad 50 bd 3e
       0.052350733 0.27054197 1.1205101 0.36975613
000300 c3 94 20 3e 31 d6 86 bd 7b ea f1 3d 6d f0 05 be
       0.15681748 -0.065838225 0.11812302 -0.13079996
000310 9b 13 37 bd c9 a1 f4 bd 67 74 4f 3e 84 75 dc 3d
       -0.04469643 -0.119449206 0.20259248 0.10764602
000320 c0 4d 6d be 90 1e fa bd 0d 4c 25 bd 68 ec a1 be
       -0.2317419 -0.122128606 -0.04035573 -0.31625676
000330 98 b4 e8 3c 01 59 34 3d b9 7c ee bd 29 55 10 be
       0.028406426 0.044030193 -0.11644883 -0.14094986
000340 6a 38 bc be 0a ef a7 3d c3 a8 73 be 89 4e da be
       -0.3676179 0.0819989 -0.23794846 -0.42638043
000350 3a b5 1d be 9b c3 c6 bc 19 92 8c be ca 29 b6 bd
       -0.15401164 -0.024263194 -0.27455214 -0.088946894
000360 fa 5a 4e 3e 68 ed 30 3f 5b 19 b7 bd 9d 32 c5 be
       0.20151892 0.69112253 -0.08940383 -0.38515177
000370 ce 33 58 be 5e 83 20 3f e9 61 2d 3d eb b5 8e 3e
       -0.21113512 0.6270045 0.042329703 0.27873167
000380 af 65 4f bc 2c 6e 90 bd 74 62 94 3f 0a 17 24 bf
       -0.012658521 -0.070522636 1.1592546 -0.64097655
000390 41 d6 35 3f b2 26 e4 3d 84 eb c7 be ae 08 3e be
       0.7103005 0.11140193 -0.39046872 -0.18557999
0003a0 5e fd c2 3e 62 bd 04 3f c9 72 22 3e 89 bb b6 be
       0.3808393 0.51851475 0.158641 -0.35689953
0003b0 91 9e be bd 86 ef 62 bf 21 3d 20 3e 0a 37 9d be
       -0.09307588 -0.88646734 0.15648319 -0.30706054
0003c0 5e 80 4a 3f ff a4 29 be 43 74 e4 be 95 ca 11 bd
       0.7910212 -0.16566847 -0.4461995 -0.035593588
0003d0 e2 0a 95 be e7 46 89 3f ba 1b 96 3d 36 b2 1c 3e
       -0.29109865 1.0724763 0.07329507 0.15302357
0003e0 ed a2 38 bf ff 22 95 bd 3a 92 3d bf 69 71 dc be
       -0.72123605 -0.072820656 -0.7405125 -0.43055275
0003f0 bd 1b 9f 3c ed 84 fe be 89 11 5b 3f 73 6c 1c 3f
       0.019422406 -0.4971079 0.8557363 0.6110298

fc.6.bias f4 [16]
000000 0b 31 11 c1 4c c3 40 40 bd 64 15 c1 eb f2 14 c1
       -9.074473 3.01192 -9.337094 -9.309306
000010 87 17 ca c0 5a 54 fb c0 e8 f5 fd bf be b8 2b c1
       -6.315372 -7.854047 -1.984067 -10.732603
000020 62 fa 5a 3d f2 06 0c c1 27 7b 32 40 b7 77 47 c1
       0.05346144 -8.751696 2.7887666 -12.466727
000030 45 be 25 c1 05 c8 05 c1 68 48 5a c1 63 1a 10 c1
       -10.3589525 -8.361333 -13.642677 -9.006442

fc.8.weight f4 [5, 16]
000000 e8 6b 74 bd 99 ac b7 bc 56 95 87 bd fa 6d df bb
       -0.05967322 -0.022421168 -0.066202804 -0.00681853
000010 fd bd 97 3b 69 bb 1b 3b 35 58 86 3d 2f 22 33 3c
       0.0046308027 0.0023762828 0.06559793 0.010933443
000020 39 b3 38 3d ba be 4c bc ae b7 49 bd d3 54 e5 3b
       0.045092795 -0.012496645 -0.049247436 0.006998637
000030 7d 4d 46 3d 6c a3 4b 3c a9 be 74 3d ef 7d b7 bc
       0.048413742 0.0124290995 0.05975214 -0.022398917
000040 db 18 00 3e 65 17 b4 3b f7 12 dd 3b 99 31 1a 3d
       0.12509482 0.005495953 0.0067466456 0.037644956
000050 37 34 32 bc 90 9f da 3c d9 83 c3 bd ea ba 83 bd
       -0.010876707 0.026687413 -0.09546632 -0.064321354
000060 5b 1d 9e bd 87 01 ee bb a5 9e 5d 3d a2 d8 e8 bb
       -0.07720443 -0.0072633657 0.054106373 -0.007105903
000070 20 a2 27 3d 23 80 a8 3c a2 45 df ba 7e e9 b0 3c
       0.0409261 0.020568913 -0.0017034302 0.021595713
000080 92 b2 0c 3d ef 23 48 c0 cd dd 39 c0 97 f7 d7 be
       0.034349985 -3.1271932 -2.9041626 -0.42181084
000090 18 41 7b be a6 ce c5 c0 7a 06 26 3e b4 23 eb bf
       -0.2453655 -6.1814756 0.16213408 -1.8370271
0000a0 16 8e 83 c0 90 0a e5 c0 17 0a d5 c0 0f 9e 1b bf
       -4.1110945 -7.1575394 -6.6574817 -0.60788053
0000b0 a4 90 e8 3d 10 d0 bb c0 0e 7d 05 bf d1 66 54 be
       0.11355713 -5.8691483 -0.52143943 -0.20742346
0000c0 0d 45 33 be 4a cc 65 c0 f2 9b 6b c0 69 66 93 be
       -0.1750681 -3.5905938 -3.6813931 -0.2878907
0000d0 38 86 83 be d0 4c c3 c0 24 cf 3c be 2b eb 27 c0
       -0.25688338 -6.1031265 -0.18438393 -2.6237285
0000e0 fc d0 86 c0 90 0b ea c0 c4 2e da c0 22 80 08 bf
       -4.213011 -7.3139114 -6.8182087 -0.53320515
0000f0 f2 01 55 be 43 3c ba c0 54 08 d8 be 24 dd c4 bd
       -0.20801523 -5.819856 -0.42193854 -0.09612492
000100 00 ca 02 3e 05 51 61 c0 9b 1e 57 c0 86 c9 9d be
       0.1277237 -3.52057 -3.361243 -0.30817813
000110 83 f6 06 3e 70 09 c9 c0 88 07 17 3e ff 5b 23 c0
       0.13179974 -6.282402 0.14748967 -2.55249
000120 52 95 88 c0 71 ee e8 c0 5a bb da c0 dd 89 06 bf
       -4.2682276 -7.2791066 -6.83537 -0.5255411
000130 99 ed bb 3d 55 78 b9 c0 60 09 db be 01 08 1b bd
       0.091761775 -5.795939 -0.4278059 -0.03784943

fc.8.bias f4 [5]
000000 67 09 8b 3f 08 2f 2c 3f 3a 73 80 c1 e6 68 80 c1
       1.0862244 0.67259264 -16.056263 -16.05122
000010 15 6f 80 c1
       -16.05424
